best.pt (torch, 188940 bytes, 282 tensors)

conv1.0.weight f4 [6, 3, 3, 3]
0	0xbeb769c1	-0.3582287
1	0x3de54704	0.11195186
2	0x3e7d2588	0.24721348
3	0xbe5bf7a3	-0.21481185
4	0xbd3fdc81	-0.04684115
5	0x3e6b8ef8	0.23003757
6	0xbdaae8ae	-0.083451614
7	0x3e2f7ada	0.17136708
8	0x3e15d25a	0.14631024
9	0x3d9b2531	0.07575453
10	0x3d958fc5	0.073028125
11	0x3eab86e6	0.33501357
12	0xbcbbe55b	-0.022936514
13	0x3e7d5826	0.24740657
14	0x3e7a6c71	0.2445543
15	0x3dfc724b	0.12326487
16	0x3e8b4c49	0.27206638
17	0x3ee217a8	0.44158673
18	0xbd5d14fb	-0.053975087
19	0xbdd73562	-0.10508229
20	0x3de407ab	0.11134275
21	0xbc28fc92	-0.010314124
22	0x3deeab4e	0.116537675
23	0x3bbbc86e	0.00573068
24	0xbd89e85b	-0.067337714
25	0xbd6dc8b1	-0.058052722
26	0x3e414412	0.18873623
27	0xbdfaa7a1	-0.12239004
28	0x3dfba419	0.122871585
29	0xbe072bbc	-0.13200277
30	0x3c252497	0.0100795245
31	0xbe259fa5	-0.16174181
32	0xbd015aad	-0.031580616
33	0x3dcab8e2	0.09898545
34	0xbdb35f77	-0.08758443
35	0x3cfe38f9	0.031033026
36	0xbe39b574	-0.18135625
37	0xbe4bfe28	-0.19921172
38	0xbe353a6d	-0.17698069
39	0xbd32dbfb	-0.04366682
40	0xbe9cb65f	-0.30607888
41	0xbe44b73f	-0.19210528
42	0x3c95cb4c	0.018285416
43	0xbea47718	-0.3212211
44	0xbe1904a7	-0.14943181
45	0xbd8353f0	-0.06412494
46	0xbd727c98	-0.059200853
47	0xbeaed896	-0.34149617
48	0x3df37fc7	0.11889606
49	0xbe0e5465	-0.13899381
50	0xbdb886e9	-0.09010107
51	0xbe4f4a0c	-0.2024309
52	0xbe25b5ad	-0.16182585
53	0xbe368052	-0.17822388
54	0xbe895cd9	-0.2682865
55	0xbe1fc6a5	-0.1560312
56	0xbea67449	-0.32510594
57	0xbec41ebc	-0.38304698
58	0xbe88900f	-0.26672408
59	0xbe05ce7b	-0.13067047
60	0xbec6fb46	-0.3886358
61	0xbd263fd2	-0.040588208
62	0xbdc3c0e0	-0.09558272
63	0xbe0d1d4a	-0.13780704
64	0xbcc071f5	-0.023491839
65	0xbd895e19	-0.06707401
66	0xbec8ef3b	-0.39245018
67	0xbe8fcb62	-0.28084856
68	0xbdf4668d	-0.119336225
69	0xbeaba1e2	-0.33521944
70	0xbe44e923	-0.1922956
71	0xbe554799	-0.20828094
72	0xbe4e3f47	-0.20141326
73	0x3bace4cf	0.0052762995
74	0xbd9bd3b3	-0.07608738
75	0xbd4404f1	-0.047856275
76	0x3e323adb	0.17405264
77	0xbc60db07	-0.013724095
78	0x3daf4b0b	0.08559235
79	0x3d4d1ea4	0.05007805
80	0x3e5d3dd5	0.21605618
81	0x3e84b517	0.2591941
82	0xbd9879f1	-0.074451335
83	0x3c9f7784	0.01946617
84	0x3e30f3b4	0.17280465
85	0x3b65c400	0.0035059452
86	0xbc23acfa	-0.009989971
87	0x3e5d1ed6	0.21593794
88	0xbc3dc86e	-0.011583431
89	0xbdd5e364	-0.10443762
90	0x3e5ceefd	0.21575542
91	0x3d8f68cc	0.0700241
92	0x3e37fb1a	0.17966881
93	0xbc86e7bc	-0.016467921
94	0x3d7d704c	0.061874673
95	0x3e7a9e73	0.24474506
96	0x3e080047	0.13281356
97	0xbbde5b7d	-0.0067858086
98	0xbdd2e728	-0.10297996
99	0x3d6582b0	0.056032836
100	0x3e6bf3ae	0.23042175
101	0xbd836d7c	-0.06417367
102	0x3e0c46d5	0.13698895
103	0x3e1fed1c	0.15617794
104	0x3d450f7d	0.048110474
105	0xbd6b936d	-0.057513643
106	0x3e53bf4c	0.20678443
107	0x3d7faab4	0.062418655
108	0x3e67877c	0.22610277
109	0x3de85bf8	0.11345667
110	0x3e925da2	0.2858706
111	0x3e962e2d	0.29332104
112	0x3eb17eaf	0.34666964
113	0x3ddfef1d	0.10934279
114	0xbcb2a7c6	-0.021808516
115	0x3de51e3b	0.11187407
116	0x3e844cdd	0.25839892
117	0x3ee62a10	0.44953966
118	0x3ee993e0	0.45620632
119	0x3d348c67	0.04407921
120	0x3ed30bbc	0.4121989
121	0x3e24434e	0.160413
122	0x3e3b6a83	0.1830235
123	0x3e4ae8e0	0.19815397
124	0x3dfb586e	0.12272726
125	0xbe0b35be	-0.1359472
126	0x3d796f1a	0.06089697
127	0xbd831639	-0.06400723
128	0xbe34c44b	-0.17653005
129	0x3e556225	0.2083822
130	0x3e16940e	0.14704916
131	0xbe14b75e	-0.14523074
132	0xbd35dd3a	-0.04440043
133	0xbda253e5	-0.07926158
134	0xbe594536	-0.21217808
135	0xbf0fa3ae	-0.5610913
136	0xbecf9b24	-0.4054805
137	0xbe6f0f76	-0.23345742
138	0xbed1923d	-0.40931883
139	0xbc9113b3	-0.017709589
140	0xbe3e8920	-0.18606997
141	0xbe776804	-0.24160773
142	0xbe7f1777	-0.24911295
143	0x3da8be7b	0.08239456
144	0xbe2e694a	-0.17032352
145	0xbeecd0f5	-0.46253172
146	0xbdfc8c73	-0.12331476
147	0xbe1f85c8	-0.15578377
148	0xbe856ffa	-0.26061994
149	0xbe4f258e	-0.2022917
150	0xbb06e5f3	-0.0020583838
151	0xbea0d6e3	-0.31413946
152	0xbca2be41	-0.01986611
153	0x3dee2b0c	0.11629304
154	0xbda8a50c	-0.08234605
155	0x3d866707	0.0656262
156	0x3c9c742d	0.019098366
157	0x3d489d2d	0.04897802
158	0x3e156be9	0.14591946
159	0x3e13503f	0.1438608
160	0xbc0f1787	-0.008733637
161	0x3e5f61ce	0.21814653

conv1.1.weight f4 [6]
0	0x3f5d993e	0.86561954
1	0x3f5e78c4	0.86903024
2	0x3f3441bb	0.70412797
3	0x3f209955	0.62733966
4	0x3f4fe768	0.8121247
5	0x3f6273c8	0.8845792

conv1.1.bias f4 [6]
0	0x3f25a652	0.6470691
1	0x3e831c12	0.25607353
2	0x3f0aa5ae	0.5415906
3	0x3e6d5a9b	0.23179094
4	0x3f3d88f3	0.7403709
5	0x3dfb41c0	0.122684

conv1.1.running_mean f4 [6]
0	0x3e554d1f	0.208302
1	0xbea13149	-0.31482914
2	0xbead7cb9	-0.33884218
3	0x3e5be927	0.2147566
4	0x3e9b5c9d	0.30344096
5	0xbe925a1b	-0.2858437

conv1.1.running_var f4 [6]
0	0x3dd16294	0.102238804
1	0x3e2e73c3	0.17036347
2	0x3e6e4d9f	0.23271798
3	0x3d983763	0.07432439
4	0x3e5347c1	0.2063284
5	0x3e4a8394	0.19776756

features.0.banch1.0.weight f4 [6, 1, 3, 3]
0	0x3dd236b7	0.10264342
1	0xbde11016	-0.10989396
2	0x3e938d3f	0.288187
3	0x3ea3e2f4	0.3200909
4	0x3e77e041	0.2420664
5	0xbe36d4aa	-0.17854562
6	0x3ef7d190	0.4840207
7	0x3e454aac	0.19266766
8	0xbe2ae80f	-0.16690086
9	0xbe334353	-0.17506151
10	0xbe02de0e	-0.1278002
11	0xbda5697b	-0.080767594
12	0x3ef92fb3	0.48669204
13	0x3dcdb452	0.10044159
14	0x3e1562dc	0.14588493
15	0x3ee055bc	0.4381541
16	0x3e9dcbf7	0.30819675
17	0x3e0411c6	0.12897405
18	0x3ed95753	0.42449436
19	0x3d8d6e4f	0.06905805
20	0xbef68adf	-0.48152825
21	0x3e90dd60	0.28293896
22	0x3ee166b7	0.44023678
23	0x3d5590bc	0.052139983
24	0xbd4bee03	-0.049787533
25	0x3e2ad31d	0.16682096
26	0xbe23eb26	-0.16007671
27	0x3ee78f11	0.45226339
28	0x3f11efeb	0.5700671
29	0xbcba00bc	-0.022705428
30	0x3e034c1c	0.12822002
31	0xbcc37b6c	-0.023862563
32	0xbd8c5c64	-0.068535596
33	0xbd8f7a4b	-0.070057474
34	0x3dd7e864	0.10542372
35	0x3d975ffb	0.07391354
36	0x3de73b7d	0.11290643
37	0x3ef5d95d	0.48017398
38	0xbd4fa4b7	-0.050694194
39	0x3e7310a9	0.23736824
40	0x3f0117e7	0.504271
41	0xbeba2a95	-0.36360613
42	0xbbf936bd	-0.0076054023
43	0x3e85c2cb	0.26125178
44	0xbe41a8a0	-0.18911982
45	0xbe120c53	-0.14262514
46	0xbe1850f6	-0.14874634
47	0xbecd31ac	-0.4007696
48	0x3e5c70ce	0.21527407
49	0xbd98c376	-0.07459156
50	0x3e4f7c70	0.20262313
51	0x3eaa09fd	0.33210745
52	0x3ebd6a51	0.36995175
53	0x3d83c54d	0.064341165

features.0.banch1.1.weight f4 [6]
0	0x3f4d4a8b	0.8019187
1	0x3f8ea58e	1.1144273
2	0x3fa0bbd1	1.2557317
3	0x3f5b94cb	0.85773915
4	0x3f98c2f3	1.1934494
5	0x3f6707db	0.9024636

features.0.banch1.1.bias f4 [6]
0	0x3cd48052	0.025940094
1	0xbcd841fb	-0.02639865
2	0xbd377668	-0.044790655
3	0x3cc449da	0.023960996
4	0xbd0b3312	-0.03398425
5	0xbda4715e	-0.080294356

features.0.banch1.1.running_mean f4 [6]
0	0x3f7d4e77	0.9894785
1	0x3f16d8df	0.5892467
2	0x3f04fea7	0.5195107
3	0x3ef274a6	0.4735462
4	0x3f6b176e	0.91832626
5	0x3e286be9	0.16447414

features.0.banch1.1.running_var f4 [6]
0	0x3fe31de2	1.7743495
1	0x3e01b56c	0.12666863
2	0x3d9d9497	0.07694357
3	0x3f339581	0.7015
4	0x3fe6a370	1.8018627
5	0x3d0e770a	0.034781493

features.0.banch1.2.weight f4 [6, 6, 1, 1]
0	0x3ecdde1a	0.40208513
1	0x3d8be43b	0.06830641
2	0xbe91c814	-0.2847296
3	0x3eaabe30	0.33348227
4	0x3d110ff6	0.035415612
5	0xbd829255	-0.06375567
6	0x3e242343	0.16029076
7	0xbec49e46	-0.38402003
8	0xbee2631c	-0.4421624
9	0xbd80c7a2	-0.06288077
10	0x3ebbc8c3	0.36676607
11	0xbeb0260f	-0.34404036
12	0xbdfb45b3	-0.122691534
13	0x3e9100dd	0.2832097
14	0x3ec688c4	0.3877622
15	0xbecdca65	-0.40193477
16	0xbcb6e4ba	-0.022325862
17	0x3e49606e	0.19665691
18	0xbdbd5161	-0.092440374
19	0x3ca8fa6f	0.020627229
20	0x3e624d67	0.22099839
21	0xbeefa008	-0.46801782
22	0xbf0f2f26	-0.5593132
23	0x3daf59bf	0.085620396
24	0x3c16c73b	0.009202774
25	0xbdc9aced	-0.09847436
26	0xbf16ead3	-0.58952063
27	0xbd804b55	-0.062643684
28	0x3ba6c353	0.0050892024
29	0xbebeeffc	-0.3729247
30	0xbccbceed	-0.024878943
31	0x3ed043d1	0.4067674
32	0xbe8bd34d	-0.27309647
33	0x3e442dce	0.19158098
34	0x3f317688	0.6932149
35	0x3e82c3dd	0.25540057

features.0.banch1.3.weight f4 [6]
0	0x3f701771	0.9378577
1	0x3fac8980	1.3479462
2	0x3f7929d9	0.9732948
3	0x3f47a04d	0.77978975
4	0x3f8c5e43	1.0966266
5	0x3f855c49	1.0418788

features.0.banch1.3.bias f4 [6]
0	0xbddb26d7	-0.107007675
1	0x3d4a676d	0.04941504
2	0x3b5d1dbd	0.003373965
3	0xbe15ac0d	-0.14616413
4	0x3ed64476	0.41849107
5	0x3f073711	0.528184

features.0.banch1.3.running_mean f4 [6]
0	0x3d068117	0.032837953
1	0x3d3eec0a	0.046611823
2	0xbd561478	-0.052265614
3	0xbc2ec30d	-0.010666621
4	0x3d66dd06	0.056363128
5	0xbd225b49	-0.039637838

features.0.banch1.3.running_var f4 [6]
0	0x3f30a27f	0.6899795
1	0x3fee20a5	1.8603712
2	0x3f9ad405	1.2095953
3	0x3fd1cc9f	1.639057
4	0x3f807ca9	1.0038043
5	0x3f9290ba	1.1450417

features.0.banch2.0.weight f4 [6, 6, 1, 1]
0	0x3e7c7960	0.24655676
1	0x3d58eb26	0.05295863
2	0x3ecb57be	0.3971538
3	0x3e00b8d3	0.12570505
4	0x3ce8989d	0.028393084
5	0x3e397737	0.18111883
6	0xbe8b0ab1	-0.27156594
7	0x3ebc73ab	0.36806998
8	0x3eb11fec	0.34594667
9	0xbe06028e	-0.13086912
10	0xbec39305	-0.38198105
11	0x3efff70f	0.49993178
12	0x3e13ac6e	0.14421245
13	0x3f18689a	0.5953461
14	0x3f1974ac	0.5994365
15	0x3ea475b2	0.32121044
16	0xbec0d5f5	-0.37663236
17	0x3de138cc	0.10997161
18	0xbf20a676	-0.62754
19	0x3e8a90aa	0.27063495
20	0x3e7621ab	0.24036281
21	0xbd923087	-0.07138162
22	0x3dafb763	0.085799
23	0xbec8f67f	-0.39250562
24	0xbddc5a02	-0.10759355
25	0x3e82021c	0.25392234
26	0x3e1a4d50	0.15068555
27	0x3dfb83bf	0.12280988
28	0x3edd091d	0.43171015
29	0xbe3771e6	-0.17914543
30	0xbebeafdb	-0.37243542
31	0xbe372e0e	-0.17888662
32	0xbefb9dd7	-0.4914386
33	0xbe0661bf	-0.13123225
34	0xbf4777e4	-0.77917314
35	0x3e163e56	0.14672217

features.0.banch2.1.weight f4 [6]
0	0x3f1182a9	0.56839997
1	0x3f50dd0b	0.81587285
2	0x3f823031	1.0170957
3	0x3f5cdab3	0.8627121
4	0x3f078064	0.52930284
5	0x3f9db131	1.23197

features.0.banch2.1.bias f4 [6]
0	0xbe7e3d59	-0.2482809
1	0xbe7d994c	-0.2476551
2	0x3e4f583c	0.20248502
3	0x3e65cdac	0.22441739
4	0xbe8bc40d	-0.27298012
5	0xbdcc552b	-0.09977182

features.0.banch2.1.running_mean f4 [6]
0	0x3f35bb57	0.7098898
1	0xbd031d74	-0.03201051
2	0x3f358b21	0.7091542
3	0xbeb81b5a	-0.35958368
4	0x3f0da24f	0.5532579
5	0xbfc93b1b	-1.5721163

features.0.banch2.1.running_var f4 [6]
0	0x3e06423c	0.13111204
1	0x3f82514f	1.0181063
2	0x3dfdcb8e	0.123923406
3	0x3f125856	0.5716604
4	0x3e3401dd	0.17578836
5	0x3fcc9665	1.5983397

features.0.banch2.3.weight f4 [6, 1, 3, 3]
0	0x3d2da45a	0.042393066
1	0x3b4af790	0.0030970313
2	0xbcf606e8	-0.03003259
3	0x3e4d14e2	0.20027497
4	0xbbbd4e8b	-0.0057771853
5	0x3f05c389	0.5225149
6	0xbe8bdf0d	-0.27318612
7	0x3c6b46ae	0.014360113
8	0x3eff5ddf	0.49876305
9	0x3c84720d	0.016167665
10	0x3df95214	0.12173858
11	0xbf096605	-0.53671294
12	0x3ec77959	0.38959768
13	0x3ed25208	0.4107821
14	0xbdca4abe	-0.09877537
15	0xbd3bf7e4	-0.045890704
16	0x3ea4c32a	0.32180148
17	0x3df69e66	0.12041931
18	0x3e3b7234	0.18305284
19	0x3eadc6e3	0.339408
20	0x3eca0337	0.39455578
21	0xbe0eff55	-0.13964589
22	0x3e979c7c	0.29611576
23	0xbd680745	-0.056647558
24	0x3bf812ea	0.007570614
25	0x3cc4139e	0.023935135
26	0x3eb80380	0.3594017
27	0x3f43bfa0	0.7646427
28	0x3eb045f0	0.34428358
29	0xbe57be7d	-0.2106876
30	0x3eb2e944	0.34943593
31	0xbd2fc5a8	-0.04291311
32	0xbce9a23b	-0.02851974
33	0xbe8b3630	-0.2718978
34	0xbe4f6515	-0.20253403
35	0xbea3aa99	-0.31966093
36	0xbe3b73b2	-0.18305853
37	0xbe2b2588	-0.16713536
38	0xbdea9c5a	-0.11455603
39	0x3e26f432	0.1630409
40	0xbee37b78	-0.44430137
41	0x3e5460fe	0.20740125
42	0xbe1f59ef	-0.1556165
43	0x3d27163d	0.040792692
44	0x3dd30833	0.10304298
45	0xbed7db89	-0.4215968
46	0xbf05915f	-0.52174944
47	0xbdab2ca0	-0.08358121
48	0xbe428c56	-0.18998846
49	0xbe7aba5f	-0.24485157
50	0x3ea2b061	0.3177519
51	0x3dc3b0f5	0.09555236
52	0x3e0e0e0a	0.13872543
53	0x3ea6e8e6	0.32599562

features.0.banch2.4.weight f4 [6]
0	0x3f3fe043	0.7495157
1	0x3f94fa32	1.1638854
2	0x3f0cd32a	0.5500971
3	0x3f94feb1	1.1640226
4	0x3f29a9c8	0.6627469
5	0x3fad056b	1.3517278

features.0.banch2.4.bias f4 [6]
0	0x3b38139a	0.0028087855
1	0x3da23ff7	0.079223566
2	0x3d81b3c1	0.063331135
3	0x3d2691be	0.040666334
4	0xbdd162fa	-0.102239564
5	0x3d73f778	0.059562176

features.0.banch2.4.running_mean f4 [6]
0	0x3dec0825	0.11524991
1	0x3dd17689	0.10227687
2	0x3f1e5e77	0.6186289
3	0x3e23fead	0.1601512
4	0xbd735ac6	-0.05941274
5	0xbe19315d	-0.14960237

features.0.banch2.4.running_var f4 [6]
0	0x3e35f9ed	0.1777112
1	0x3ce723be	0.028215285
2	0x3f0ba2eb	0.5454547
3	0x3dde0ebf	0.10842656
4	0x3d79852d	0.060918022
5	0x3d7c2b6a	0.06156484

features.0.banch2.5.weight f4 [6, 6, 1, 1]
0	0xbd854286	-0.06506829
1	0xbe7263a4	-0.23670822
2	0xbdb2f277	-0.08737653
3	0x3ea8be71	0.32957795
4	0x3e633fee	0.22192356
5	0xbf48fba0	-0.7850895
6	0x3e072f04	0.13201529
7	0x3e8ca8fd	0.27472678
8	0xbe781416	-0.24226412
9	0x3f18ce30	0.5968962
10	0x3ec1b913	0.37836513
11	0xbe8831b4	-0.2660042
12	0xbea681eb	-0.32520995
13	0x3ed292a0	0.4112749
14	0xbe1a6343	-0.15076928
15	0x3e87d4a7	0.26529428
16	0xbe49287a	-0.19644347
17	0xbe292625	-0.16518457
18	0xbddff5f6	-0.10935585
19	0xbe91375f	-0.28362557
20	0xbdb1aff5	-0.08676139
21	0xbea21d36	-0.3166291
22	0x3e6ba03e	0.23010346
23	0x3e6e03c5	0.23243625
24	0xbe721c50	-0.23643613
25	0xbefefa68	-0.4980042
26	0xbe23e2f3	-0.16004543
27	0x3e7cd067	0.24688874
28	0xbb6a42c9	-0.0035745373
29	0xbe8e89b6	-0.2783944
30	0x3e2d8276	0.16944298
31	0x3ec9b799	0.39397886
32	0x3e2737a7	0.16329823
33	0x3e7c1b8b	0.24619882
34	0x3e574f45	0.21026333
35	0xbe6b17c1	-0.2295828

features.0.banch2.6.weight f4 [6]
0	0x3fb777b9	1.4333411
1	0x3f9eeb85	1.2415625
2	0x3f50398a	0.813378
3	0x3f679f42	0.90477383
4	0x3f4d907a	0.8029858
5	0x3f8e06ff	1.1095885

features.0.banch2.6.bias f4 [6]
0	0x3ec20fde	0.3790273
1	0x3f21871f	0.63096803
2	0xbeaf3e03	-0.34227
3	0x3dbcd9ff	0.09221267
4	0x3dd13daf	0.10216843
5	0xbdd1fc94	-0.102532536

features.0.banch2.6.running_mean f4 [6]
0	0xbdb0eb90	-0.0863868
1	0xbccad39a	-0.024759103
2	0x3d337263	0.04381026
3	0xbd54f52a	-0.05199162
4	0xbd74ba36	-0.059747897
5	0x3c8ef395	0.017450133

features.0.banch2.6.running_var f4 [6]
0	0x3ff6b6f4	1.9274583
1	0x3fbed917	1.491
2	0x3f13978a	0.57653105
3	0x3f2a63bb	0.66558427
4	0x3f17217e	0.5903548
5	0x3f660511	0.8985148

features.1.banch2.0.weight f4 [6, 6, 1, 1]
0	0x3e830381	0.2558861
1	0xbe6b0ec3	-0.2295485
2	0xbec4f423	-0.38467512
3	0x3e69f841	0.22848608
4	0xbec142e4	-0.37746346
5	0x3ee472d4	0.44618857
6	0xbe2114c7	-0.15730582
7	0xbe4d97f1	-0.20077492
8	0x3f033a8b	0.51261204
9	0x3cbdbc98	0.023161218
10	0x3d8b26f7	0.06794541
11	0xbeb2f817	-0.34954903
12	0x3df1099e	0.117694125
13	0x3eed5b0d	0.4635853
14	0xbe451fcc	-0.19250411
15	0xbe6c0c9f	-0.2305169
16	0x3e0a084a	0.13479725
17	0xbebae6df	-0.36504266
18	0x3d5e7a12	0.054315634
19	0x3e536e9e	0.20647666
20	0x3eeaa1d3	0.45826587
21	0x3cdc6f4c	0.02690854
22	0xbee811a3	-0.45325956
23	0xbf27d566	-0.65559995
24	0xbe14b0d5	-0.14520581
25	0xbe683ef0	-0.22680259
26	0x3d9b7046	0.07589774
27	0x3ea0e770	0.31426573
28	0xbef0b4a1	-0.4701281
29	0xbe833ba6	-0.25631446
30	0xbe44b6af	-0.19210313
31	0xbe534d8f	-0.20635055
32	0xbe6386f4	-0.2221945
33	0xbf0b7958	-0.5448203
34	0x3ef819b9	0.48457125
35	0x3e08f4b0	0.13374591

features.1.banch2.1.weight f4 [6]
0	0x3f17fd91	0.59371287
1	0x3f9e8a22	1.2385905
2	0x3f5790a3	0.84205073
3	0x3f4cae4c	0.79953456
4	0x3f155165	0.58327323
5	0x3f9aaaed	1.2083412

features.1.banch2.1.bias f4 [6]
0	0x3efd054e	0.4941811
1	0x3d3a9c1c	0.045559034
2	0x3ea8ed1d	0.32993403
3	0x3ea4d709	0.3219531
4	0x3eb4aefb	0.3528975
5	0xbdc02fdd	-0.09384129

features.1.banch2.1.running_mean f4 [6]
0	0xbe965dad	-0.29368344
1	0x3e1f2bcf	0.15544055
2	0xbd84d400	-0.06485748
3	0xbe03e1d5	-0.12879117
4	0xbeb053d5	-0.3443896
5	0xbdd5742f	-0.10422551

features.1.banch2.1.running_var f4 [6]
0	0x3f2b66bb	0.6695363
1	0x3e9a525b	0.30140957
2	0x3e46bf65	0.19408949
3	0x3f0b5838	0.54431486
4	0x3e956df6	0.29185456
5	0x3ea96288	0.33082986

features.1.banch2.3.weight f4 [6, 1, 3, 3]
0	0xbe8e4e22	-0.27793986
1	0xbe40b960	-0.18820715
2	0x3f05014f	0.5195512
3	0x3e8601fa	0.26173383
4	0xbe570787	-0.20998965
5	0xbd0924ad	-0.033482242
6	0x3eb00e71	0.34386018
7	0xbecc8191	-0.399426
8	0xbd884c9e	-0.066552386
9	0xbe35d3e4	-0.17756611
10	0xbe3335ef	-0.17501043
11	0x3e97497a	0.29548246
12	0x3ecde61f	0.4021463
13	0x3e76e2ba	0.24109927
14	0x3e5815f8	0.2110213
15	0xbde5dc70	-0.11223686
16	0x3e367da7	0.1782137
17	0x3bd49950	0.006488003
18	0x3ea0f33d	0.31435576
19	0x3de0ca48	0.10976082
20	0xbda570dc	-0.08078167
21	0xbd8f9a58	-0.070118606
22	0xbf366080	-0.71241
23	0xbd9d7077	-0.076874666
24	0xbec1771f	-0.37786195
25	0xbebedcc1	-0.37277797
26	0x3d065433	0.032795142
27	0x3ebef393	0.37295207
28	0x3ed8f000	0.42370605
29	0x3edafa00	0.4276886
30	0x3e35ffdd	0.17773385
31	0xbdf9a95a	-0.12190504
32	0xbeca85b7	-0.3955514
33	0xbd78fcea	-0.060788073
34	0xbe5ded20	-0.21672487
35	0xbe6975a8	-0.22798789
36	0xbe80820a	-0.25099212
37	0x3e82d71a	0.25554734
38	0xbdc346e9	-0.095350094
39	0x3c562714	0.01307084
40	0x3f0a88ae	0.54114807
41	0x3ccb2cb1	0.024801584
42	0x3e84d85d	0.25946322
43	0x3d06b8ce	0.032891087
44	0xbeb79c61	-0.35861495
45	0x3ef16504	0.4714738
46	0x3f12571e	0.5716418
47	0xbe7a9335	-0.24470218
48	0xbebaef71	-0.36510804
49	0xbd1370b6	-0.03599616
50	0xbe59dc80	-0.2127552
51	0x3eccb94a	0.39985114
52	0x3dd0edc0	0.10201597
53	0x3d36f842	0.04467035

features.1.banch2.4.weight f4 [6]
0	0x3f7f8b59	0.99822
1	0x3f92785e	1.1442983
2	0x3f4d8a74	0.8028939
3	0x3f8eab78	1.1146078
4	0x3f76b879	0.9637523
5	0x3f806b89	1.0032817

features.1.banch2.4.bias f4 [6]
0	0xbdbf218b	-0.0933257
1	0x3d956121	0.072939165
2	0xbcf7c092	-0.030243192
3	0x3df7892a	0.12086709
4	0x3db754fe	0.08951758
5	0x3e2d5b4a	0.16929355

features.1.banch2.4.running_mean f4 [6]
0	0xbd63679f	-0.055518743
1	0x3ec6bc61	0.38815597
2	0xbf0effb3	-0.55858916
3	0x3e341ce1	0.17589141
4	0x3e64e482	0.22352794
5	0x3e96e19b	0.29468998

features.1.banch2.4.running_var f4 [6]
0	0x3e0ecf72	0.13946322
1	0x3e77cf80	0.24200249
2	0x3ee3e4a4	0.44510376
3	0x3e115e34	0.14196092
4	0x3dbc8a8f	0.092061155
5	0x3f00205a	0.50049365

features.1.banch2.5.weight f4 [6, 6, 1, 1]
0	0xbcba1251	-0.022713812
1	0xbe05ac13	-0.13053922
2	0xbeab7f17	-0.334954
3	0x3eeb3626	0.4593975
4	0xbe9c6c3f	-0.30551335
5	0xbecdd0be	-0.4019832
6	0x3f370452	0.7149097
7	0xbed321ab	-0.41236624
8	0x3de8a65c	0.113598555
9	0x3d9daca4	0.07698944
10	0x396089b6	0.00021413606
11	0xbe62523f	-0.22101687
12	0xbe27fc02	-0.16404727
13	0x3e893e8c	0.26805532
14	0x3e52efd6	0.20599303
15	0x3e7dd4c5	0.24788196
16	0xbbc46677	-0.00599366
17	0xbe825dc8	-0.25462174
18	0x3e61981e	0.22030684
19	0x3f021ed3	0.50828284
20	0xbeccf811	-0.4003301
21	0x3c85844a	0.016298432
22	0xbc262a92	-0.0101419855
23	0xbe321a92	-0.17392948
24	0xbda51b55	-0.08061854
25	0x3ea02e74	0.3128544
26	0x3dc14a3a	0.09437986
27	0x3ee11879	0.43963984
28	0x3df446d4	0.11927572
29	0xbd6cc6d6	-0.057806812
30	0x3e4f70f3	0.2025793
31	0x3e41b566	0.18916854
32	0x3e923866	0.28558654
33	0x3e3ab6b6	0.18233761
34	0x3f199787	0.5999684
35	0xbe884148	-0.26612306

features.1.banch2.6.weight f4 [6]
0	0x3f9249ec	1.1428809
1	0x3f943929	1.1579944
2	0x3f41e65a	0.75742114
3	0x3f8c6fbb	1.0971597
4	0x3f6b4aa2	0.91910756
5	0x3f69c19d	0.91311055

features.1.banch2.6.bias f4 [6]
0	0x3ec1c58a	0.37846023
1	0x3e6974e9	0.22798504
2	0xbc301965	-0.010748242
3	0x3d0d28a7	0.034462597
4	0x3ea4a6e4	0.32158577
5	0xbda7bd32	-0.08190383

features.1.banch2.6.running_mean f4 [6]
0	0xbd099fc8	-0.033599645
1	0xbe0661dc	-0.13123268
2	0x3c83abea	0.016073186
3	0xbaa05e9c	-0.0012235227
4	0x3da7d255	0.081944145
5	0x3c5bb7f2	0.013410555

features.1.banch2.6.running_var f4 [6]
0	0x3f114d13	0.5675823
1	0x3f1a6423	0.60309047
2	0x3ed52bad	0.41634884
3	0x3f1db1a1	0.61599165
4	0x3f08fad3	0.5350773
5	0x3f5f27a3	0.87169856

features.2.banch2.0.weight f4 [6, 6, 1, 1]
0	0x3eb869e0	0.36018276
1	0xbe01474a	-0.12624851
2	0x3e31ca80	0.17362404
3	0xbe0a701d	-0.1351933
4	0x3e9f39c8	0.3109877
5	0xbe4225c3	-0.18959717
6	0xbf02fb03	-0.51164263
7	0x3d9077a1	0.070540674
8	0xbf05acde	-0.522169
9	0xbe8b66ab	-0.27226767
10	0x3e2c98be	0.16855142
11	0xbd8f71d4	-0.07004133
12	0xbd06a478	-0.032871693
13	0xbefbbdfe	-0.4916839
14	0xbd7d9b5f	-0.06191575
15	0x3ef878e2	0.48529726
16	0x3f0462e9	0.51713425
17	0xbe3e2a4c	-0.18570822
18	0xbd9deefe	-0.077116
19	0xbe8662d6	-0.2624728
20	0x3ed7fdde	0.42185873
21	0xbef13b76	-0.47115678
22	0xbe14e1c9	-0.14539255
23	0xbe81d164	-0.25355065
24	0x3e4ca6a8	0.1998545
25	0xbe88352d	-0.2660307
26	0xbe50feac	-0.2040965
27	0xbe2b2049	-0.16711535
28	0x3b55be3f	0.0032614616
29	0x3f1351da	0.5754677
30	0xbeebd97d	-0.46064368
31	0x3e817fa6	0.252927
32	0x3d2171f4	0.039415315
33	0x3e598456	0.21241888
34	0xbe3a3daa	-0.18187585
35	0xbeccf08a	-0.40027267

features.2.banch2.1.weight f4 [6]
0	0x3f8bda24	1.0925946
1	0x3fda583f	1.705818
2	0x3f8156d2	1.010462
3	0x3fb7d178	1.43608
4	0x3f87c113	1.0605797
5	0x3f2e18fb	0.6800687

features.2.banch2.1.bias f4 [6]
0	0x3beef751	0.007292666
1	0xbd6ccb2d	-0.05781095
2	0x3e00f44a	0.12593189
3	0x3d3c6eb2	0.046004005
4	0xbe66a3fb	-0.22523491
5	0x3e998770	0.29986143

features.2.banch2.1.running_mean f4 [6]
0	0x3e6cd188	0.23126805
1	0xbf3df984	-0.74208856
2	0x3c9f0a7f	0.019414185
3	0xbec8ab19	-0.39193037
4	0x3d97104f	0.073761575
5	0xbea93666	-0.33049315

features.2.banch2.1.running_var f4 [6]
0	0x3eaf4d21	0.34238532
1	0x3ebf8025	0.37402454
2	0x3e21a355	0.15784962
3	0x3eb8ed5e	0.36118597
4	0x3e32a2ca	0.17444912
5	0x3ece3ed6	0.40282315

features.2.banch2.3.weight f4 [6, 1, 3, 3]
0	0xbf15534d	-0.5833023
1	0x3e3bd092	0.18341282
2	0x3ecc6605	0.39921585
3	0xbd04f8fd	-0.032464016
4	0x3dc01cf4	0.09380522
5	0xbe2b29d2	-0.16715172
6	0x3d80ad8f	0.06283104
7	0x3e3382bb	0.17530338
8	0xbd02dba3	-0.031947743
9	0xbeaf51a5	-0.34241977
10	0x3babc8ec	0.0052424576
11	0x3edaf634	0.42765963
12	0x3e1161d4	0.14197475
13	0x3ea72766	0.32647246
14	0xbd80f3fc	-0.06296536
15	0x3df314d4	0.11869207
16	0xbddf8667	-0.10914307
17	0xbd593dc2	-0.053037412
18	0xbe4238ea	-0.18967023
19	0xbf2e8011	-0.68164164
20	0x3e861e21	0.26194862
21	0x3ea629ce	0.3245377
22	0xbed961b7	-0.42457363
23	0x3e1a1f15	0.1505092
24	0x3d1d5f79	0.038421128
25	0x3dcc2581	0.09968091
26	0xbe4a417a	-0.1975154
27	0x3e97a4c4	0.29617894
28	0x3f43ad1f	0.76436037
29	0xbdadda4e	-0.08488904
30	0x3da187c2	0.07887222
31	0x3e129479	0.1431445
32	0xbddda306	-0.1082211
33	0x3e151211	0.14557673
34	0x3e063b46	0.13108549
35	0x3e69bcea	0.22825971
36	0x3d0c65c4	0.03427674
37	0xbeb3596f	-0.3502917
38	0x3da0f0ad	0.07858405
39	0x3eaacebf	0.3336086
40	0x3ed00959	0.40632132
41	0x3efaed69	0.49009255
42	0x3e12871e	0.14309356
43	0x3e689b59	0.2271551
44	0xbe87720d	-0.264542
45	0x3d56a720	0.052405477
46	0xbca9fee9	-0.020751433
47	0xbf150cd4	-0.582227
48	0x3eb355b0	0.35026312
49	0xbea1e47b	-0.3161963
50	0xbf067770	-0.52526
51	0x3e8acef5	0.2711102
52	0x3d7e8c01	0.062145237
53	0xbded8b11	-0.115987904

features.2.banch2.4.weight f4 [6]
0	0x3f987274	1.1909928
1	0x3f52da8d	0.8236473
2	0x3f636d03	0.88838214
3	0x3f842f3a	1.0326912
4	0x3f736403	0.9507448
5	0x3f8a954e	1.0826814

features.2.banch2.4.bias f4 [6]
0	0xbdef59b9	-0.11687035
1	0x3ca7b94c	0.020474099
2	0x3d875951	0.06608833
3	0xbd9221aa	-0.07135327
4	0xbd243c38	-0.04009649
5	0x3da7624c	0.081730455

features.2.banch2.4.running_mean f4 [6]
0	0x3ddf4b13	0.10902991
1	0x3e8bfa1e	0.27339262
2	0xbe7b89ca	-0.24564281
3	0x3f527c32	0.82220757
4	0x3ebe7fda	0.37206918
5	0xbea3118c	-0.31849325

features.2.banch2.4.running_var f4 [6]
0	0x3e273523	0.16328864
1	0x3e355005	0.17706306
2	0x3ecb59a3	0.39716825
3	0x3f38ef60	0.7224026
4	0x3eb2dc7a	0.34933835
5	0x3ea517a1	0.3224459

features.2.banch2.5.weight f4 [6, 6, 1, 1]
0	0xbe3db584	-0.18526274
1	0xbdfd3c0d	-0.123649694
2	0x3e9c3117	0.30506203
3	0x3e4246ec	0.18972367
4	0xbed98af0	-0.42488813
5	0xbec618eb	-0.38690886
6	0xbf09fb2a	-0.5389887
7	0x3da5f4fd	0.081033684
8	0x3d0357a1	0.03206599
9	0x3e9f94ca	0.31168205
10	0x3cf8958b	0.030344745
11	0x3e260208	0.16211712
12	0xbeb1ef50	-0.34752893
13	0x3ed8bf32	0.4233337
14	0xbd66bd9e	-0.056333177
15	0xbe8e6813	-0.27813777
16	0x3d9fc3de	0.078010306
17	0xbef60cac	-0.48056543
18	0x3e0976df	0.13424252
19	0xbd7daad9	-0.06193051
20	0xbee7dd17	-0.45285866
21	0x3c2689cf	0.010164692
22	0x3ecbf23e	0.39833254
23	0x3f3bf9c1	0.7342797
24	0xbeccc159	-0.39991263
25	0x3d5bb1e2	0.05363644
26	0xbb456700	-0.0030121207
27	0xbe5edd3f	-0.21764086
28	0xbe7818e1	-0.2422824
29	0x3e1247a8	0.14285147
30	0x3b31804a	0.0027084523
31	0x3f01f9d3	0.50771827
32	0xbe056759	-0.13027705
33	0xbf153e39	-0.5829807
34	0xbe323e69	-0.1740662
35	0x3e889b90	0.26681185

features.2.banch2.6.weight f4 [6]
0	0x3f8853cc	1.0650573
1	0x3f5999c8	0.85000277
2	0x3f9b1f08	1.2118845
3	0x3f635742	0.8880502
4	0x3f6172f3	0.88066024
5	0x3f53dccb	0.8275878

features.2.banch2.6.bias f4 [6]
0	0x3d2376e8	0.03990832
1	0x39f392fb	0.0004645808
2	0x3e4b62bf	0.19861887
3	0x3eefa64c	0.46806562
4	0x3e12a6cd	0.14321442
5	0x3d61da59	0.055139873

features.2.banch2.6.running_mean f4 [6]
0	0x3c291433	0.010319757
1	0x3d63673d	0.055518378
2	0x3cc0acaf	0.023519842
3	0xbb4f0062	-0.0031585922
4	0x3da8bd93	0.082392834
5	0x3d8dee53	0.06930222

features.2.banch2.6.running_var f4 [6]
0	0x3f158cc2	0.58417904
1	0x3ee1d094	0.44104445
2	0x3f9a583c	1.2058177
3	0x3fb2f742	1.3981707
4	0x3ea438d3	0.32074603
5	0x3f10fe2b	0.5663783

features.3.banch2.0.weight f4 [6, 6, 1, 1]
0	0xbecacb94	-0.39608443
1	0x3e9d53b7	0.30727932
2	0x3ec7022e	0.3886885
3	0x3d3d0f8b	0.0461574
4	0x3d45b667	0.048269656
5	0xbe88375f	-0.26604745
6	0x3ef0ef6e	0.4705767
7	0xbe12284a	-0.14273182
8	0x3e090743	0.13381676
9	0xbe7d1148	-0.24713624
10	0xbd0fcafd	-0.035105694
11	0xbe2ec895	-0.17068703
12	0x3d0156b2	0.03157682
13	0xbf47ec52	-0.7809497
14	0xbd6e4731	-0.058173362
15	0x3e150338	0.14552009
16	0xbea47e95	-0.32127824
17	0xbdb66794	-0.08906475
18	0xbe3dd8b8	-0.18539703
19	0x3c0e1839	0.008672767
20	0xbe80035d	-0.25002566
21	0xbed0f692	-0.40813118
22	0xbe579883	-0.21054272
23	0x3c9ce388	0.019151464
24	0x3e233d08	0.1594125
25	0xbed05eff	-0.40697476
26	0x3f0115cd	0.5042389
27	0x3e31ba84	0.17356306
28	0xbd8bc170	-0.06824005
29	0x3e9b9492	0.30386788
30	0x3d7648c5	0.060127992
31	0xbd198af9	-0.03748605
32	0x3f112e30	0.567111
33	0xbdc7884f	-0.09742796
34	0x3da59e27	0.08086806
35	0x3ded77df	0.11595129

features.3.banch2.1.weight f4 [6]
0	0x3f8eb39a	1.114856
1	0x3f7ffd7f	0.9999618
2	0x3f8be8e1	1.0930444
3	0x3f8a6697	1.0812558
4	0x3f7c3fba	0.9853474
5	0x3f94be24	1.1620526

features.3.banch2.1.bias f4 [6]
0	0x3ca52b84	0.020162351
1	0x3e70d5a8	0.23519003
2	0x3ea185ec	0.31547487
3	0xbd2320be	-0.039826147
4	0x3e822283	0.25416955
5	0xbac89782	-0.0015303942

features.3.banch2.1.running_mean f4 [6]
0	0x3def7b7f	0.11693477
1	0x3db81e4d	0.089901544
2	0xbf12de5e	-0.57370555
3	0xbeecf2d2	-0.46279007
4	0x3e89adfa	0.26890546
5	0x3eafbe71	0.34324983

features.3.banch2.1.running_var f4 [6]
0	0x3e409636	0.18807301
1	0x3e271dd3	0.16319971
2	0x3ea29f83	0.31762323
3	0x3e024c72	0.12724474
4	0x3ef51b20	0.47872257
5	0x3e8cfd41	0.27536967

features.3.banch2.3.weight f4 [6, 1, 3, 3]
0	0xbd84c1ac	-0.064822525
1	0xbecd2335	-0.40065923
2	0xbd6657f7	-0.056236234
3	0xbece4836	-0.40289468
4	0xbea09dd3	-0.3137041
5	0xbe8407da	-0.2578724
6	0x3e285a39	0.16440667
7	0xbc54a49f	-0.012978702
8	0x3ecdca35	0.40193334
9	0xbe1ed33d	-0.15510269
10	0x3eb3fae0	0.3515234
11	0x3ee8511d	0.45374385
12	0xbe246b5d	-0.16056581
13	0xbe70d214	-0.23517638
14	0x3de5ba53	0.11217179
15	0x3c854add	0.01627105
16	0xbdbef268	-0.09323579
17	0x3b4cfd12	0.0031278771
18	0xbebc767f	-0.36809155
19	0xbd24cc96	-0.04023417
20	0xbe258fd1	-0.16168143
21	0xbee5fdf1	-0.44920304
22	0x3e4b55dc	0.19856972
23	0x3e1fa6d9	0.15590991
24	0xbc2eba42	-0.0106645245
25	0x3e6c73c8	0.23091042
26	0x3f0c523f	0.54813
27	0x3efdd014	0.49572814
28	0x3e9296c0	0.28630638
29	0xbe0ee71e	-0.13955352
30	0xbd67bfc2	-0.05657936
31	0x3e2ba9ee	0.16764042
32	0xbcc3acaf	-0.023886053
33	0xbe30b00d	-0.17254658
34	0x3e9d504e	0.3072533
35	0x3e4efd90	0.20213914
36	0x3e766c35	0.24064715
37	0x3e6499b1	0.22324254
38	0xbee116d3	-0.43962726
39	0xbe1389c5	-0.14408024
40	0x3d8fc50b	0.07020005
41	0xbe062cc5	-0.13103016
42	0x3eacfcd6	0.3378665
43	0xbc4c02e9	-0.012451866
44	0xbe12b923	-0.14328437
45	0x3ebba2e1	0.36647704
46	0x3c9e5cc7	0.019331349
47	0xbee7e6a3	-0.4529315
48	0xbcda4371	-0.026643487
49	0x3dfbe8ae	0.123002395
50	0x3d1f94cd	0.038960267
51	0x3ed15b66	0.40890044
52	0x3eb2b35f	0.34902474
53	0xbdcaf671	-0.09910286

features.3.banch2.4.weight f4 [6]
0	0x3f78746d	0.9705265
1	0x3fafb594	1.3727288
2	0x3f6a600a	0.91552794
3	0x3f5d088c	0.86341166
4	0x3f5b0a92	0.85563004
5	0x3f769411	0.9631968

features.3.banch2.4.bias f4 [6]
0	0x3e01597c	0.12631792
1	0xbd9705fc	-0.07374188
2	0x3bf76ca9	0.007550795
3	0xbce8b320	-0.028405726
4	0xbdb0e630	-0.08637655
5	0xbd05b314	-0.032641485

features.3.banch2.4.running_mean f4 [6]
0	0xbebe798e	-0.37202114
1	0x3d836c6c	0.06417164
2	0xbcf804b5	-0.030275682
3	0x3ebf3228	0.37342954
4	0x3d603b22	0.054743893
5	0x3eb112cd	0.34584656

features.3.banch2.4.running_var f4 [6]
0	0x3eed35b5	0.46330038
1	0x3e73d5c4	0.23812014
2	0x3ed8a630	0.4231429
3	0x3e0b46d7	0.13601242
4	0x3ea93f9c	0.33056343
5	0x3f3ed0e6	0.74537504

features.3.banch2.5.weight f4 [6, 6, 1, 1]
0	0xbe48ef01	-0.19622423
1	0x3e7895b9	0.24275865
2	0x3e9502dc	0.29103744
3	0x3eaf39a9	0.3422368
4	0xbedc1654	-0.42985785
5	0xbd890437	-0.06690257
6	0xbf0a640d	-0.54058915
7	0x3e955527	0.2916653
8	0x3e790d3a	0.24321452
9	0x3ec78dd5	0.38975397
10	0x3d14a2cd	0.03628807
11	0x3ec6dd90	0.38840914
12	0x3e5ba09c	0.21447986
13	0xbf3dcf13	-0.74144095
14	0xbe2d4f1d	-0.1692471
15	0xbe64586e	-0.22299358
16	0x3c79a359	0.015236699
17	0xbe284aa9	-0.1643473
18	0xbc51a07a	-0.012794608
19	0x3f2dd716	0.6790632
20	0xbe2bd8dc	-0.16781944
21	0x3e88a733	0.26690063
22	0x3e590dd8	0.21196687
23	0xbd537a14	-0.051630095
24	0x3d846427	0.06464415
25	0x3f16bb71	0.5887976
26	0x3ca2fd72	0.019896243
27	0xbe29138e	-0.16511366
28	0xbe5de406	-0.21669015
29	0xbe67932e	-0.22614738
30	0x3d070025	0.032959122
31	0x3dabbb08	0.08385283
32	0x3edee372	0.43532902
33	0x3d99ca53	0.075092934
34	0xbe2b5eb0	-0.16735339
35	0xbf323354	-0.6960957

features.3.banch2.6.weight f4 [6]
0	0x3f85f3f3	1.0465072
1	0x3f2a330a	0.6648413
2	0x3f72fadb	0.94914025
3	0x3f4e4632	0.8057586
4	0x3f85286d	1.0402962
5	0x3f3a369f	0.72739595

features.3.banch2.6.bias f4 [6]
0	0x3e69e36b	0.2284066
1	0x3f0d0669	0.55087906
2	0x3e290c03	0.16508488
3	0x3e13be18	0.14427984
4	0xbda5a199	-0.08087463
5	0x3ec7d8a9	0.39032486

features.3.banch2.6.running_mean f4 [6]
0	0xbc2c0f87	-0.010501749
1	0xbdee9714	-0.116499096
2	0x3db92866	0.090409085
3	0xbd9a7425	-0.07541684
4	0xbb2fba8a	-0.0026814067
5	0x3d13bcca	0.036068715

features.3.banch2.6.running_var f4 [6]
0	0x3f310a6d	0.69156533
1	0x3f4e415b	0.80568475
2	0x3f985c97	1.1903256
3	0x3f58ebe4	0.8473494
4	0x3f7ce868	0.98792124
5	0x3f882157	1.0635175

features.4.banch1.0.weight f4 [12, 1, 3, 3]
0	0x3d43cb32	0.047801204
1	0xbdad9ab5	-0.08476774
2	0xbeb50946	-0.35358638
3	0xbea9a0c7	-0.33130476
4	0x3e4da7b0	0.20083499
5	0xbef1ae94	-0.47203505
6	0x3e02eb94	0.12785178
7	0x3de7abd7	0.11312073
8	0xbe981a31	-0.29707482
9	0xbe267b58	-0.1625799
10	0x3ec626fa	0.38701612
11	0xbe937efc	-0.2880782
12	0x3ef170a7	0.4715626
13	0xbed093a8	-0.40737653
14	0xbbcb30c4	-0.0062008817
15	0x3f2a67b6	0.665645
16	0x3e165eec	0.14684647
17	0x3cfc57f1	0.030803652
18	0x3e96b2da	0.29433328
19	0xbdefa6fb	-0.11701771
20	0xbdb56858	-0.088577926
21	0xbeb44dd0	-0.35215616
22	0xbe50b088	-0.20379841
23	0xbcacdad5	-0.021100441
24	0xbeaa51d1	-0.33265546
25	0xbe7e6bba	-0.24845782
26	0xbf090175	-0.5351785
27	0x3e9287f9	0.28619364
28	0x3e9b27b3	0.30303726
29	0x3da0ec7b	0.07857605
30	0x3e9a5ce4	0.30148995
31	0x3ee0072a	0.43755466
32	0x3ea39b57	0.31954452
33	0x3e2ab8f7	0.16672121
34	0xbe3fbb52	-0.18723801
35	0xbde6bf2a	-0.112669304
36	0x3ecfeea6	0.40611762
37	0x3de6d841	0.11271716
38	0xbe253a6e	-0.1613557
39	0x3e477ecf	0.19481967
40	0xbf05eae5	-0.52311546
41	0x3e2a1b54	0.16611987
42	0xbeef9061	-0.4678984
43	0xbf22fd8b	-0.63668126
44	0xbe7191fa	-0.23590842
45	0x3ea0eb15	0.31429353
46	0x3e984f83	0.29748163
47	0xbc9fab2d	-0.019490803
48	0xbecab8ec	-0.3959421
49	0xbd1b2df0	-0.037885606
50	0x3d6a2267	0.057161715
51	0xbed7acbf	-0.42123982
52	0xbecfc954	-0.4058329
53	0xbdba32c9	-0.09091718
54	0xbe1df889	-0.1542684
55	0x3ec59a8f	0.3859448
56	0xbd90a3f3	-0.07062521
57	0x3caaff2b	0.020873627
58	0xbb00b394	-0.0019638287
59	0x3dc648a4	0.09681824
60	0x3c39a1f9	0.011330121
61	0xbcb098a7	-0.021557165
62	0xbf3d737c	-0.7400434
63	0xbe91f934	-0.2851044
64	0xbc76161b	-0.015019919
65	0x3f59dfe2	0.85107243
66	0x3e09d17b	0.13458817
67	0xbe0652dd	-0.13117547
68	0x3d32a918	0.04361829
69	0x3d9b1e1a	0.07574101
70	0xbe44d24b	-0.19220845
71	0xbe07b105	-0.13251121
72	0x3e9bd023	0.30432233
73	0xbda8a4b5	-0.082345404
74	0x3e95dc02	0.29269415
75	0xbe1319e1	-0.14365341
76	0x3eb8a95d	0.36066714
77	0xbecef0d6	-0.40418118
78	0x3ebe5eaf	0.37181613
79	0x3f08bf58	0.5341697
80	0xbe98be74	-0.29832804
81	0x3e5fb8b6	0.21847805
82	0xbe129063	-0.14312892
83	0xbe86c43e	-0.26321596
84	0xbe606067	-0.21911775
85	0x3eb6e1a9	0.3571904
86	0x3e8c03fd	0.27346793
87	0x3d798686	0.060919307
88	0x3e328d6a	0.17436758
89	0xbef89842	-0.48553663
90	0x3ed82471	0.42215303
91	0xbe9391dd	-0.28822222
92	0xbf026f1c	-0.5095079
93	0xbf23163b	-0.63705796
94	0xbf17ebe7	-0.59344333
95	0x3e37254c	0.17885321
96	0xbe0fd192	-0.14044788
97	0xbe055e09	-0.13024153
98	0x3dc47352	0.09592308
99	0x3d0cd9cd	0.0343874
100	0xbe9c8e42	-0.30577284
101	0x3e8751a7	0.26429483
102	0x3f08c1cc	0.5342071
103	0xbd833357	-0.06406277
104	0xbddc0adc	-0.10744259
105	0x3f21438e	0.62993705
106	0x3d839e52	0.064266816
107	0x3e0f9b27	0.1402403

features.4.banch1.1.weight f4 [12]
0	0x3f7d211f	0.98878664
1	0x3f7e4205	0.9931949
2	0x3f50d68a	0.8157736
3	0x3f854d93	1.0414299
4	0x3f8eff87	1.1171731
5	0x3f89b8b4	1.0759492
6	0x3f4f71fc	0.810333
7	0x3f38e41c	0.7222307
8	0x3fe23e8e	1.767534
9	0x3f87de3b	1.0614694
10	0x3f3a2db0	0.72725964
11	0x3f789f96	0.9711851

features.4.banch1.1.bias f4 [12]
0	0xbe416c25	-0.1888891
1	0xbd7fff75	-0.062499482
2	0xbb337e76	-0.002738861
3	0x3e186936	0.14883885
4	0xbe3f7bd3	-0.18699579
5	0xbd47ba9e	-0.048761956
6	0xbd862364	-0.06549719
7	0xbd1f9fac	-0.038970634
8	0xbdc343d9	-0.09534425
9	0x3ae06a93	0.0017121605
10	0xbc843287	-0.016137375
11	0x3e04f74a	0.12984958

features.4.banch1.1.running_mean f4 [12]
0	0xbe7e7d03	-0.24852376
1	0x3e9784c2	0.29593474
2	0xbf17d89c	-0.59314895
3	0x3f50e504	0.8159945
4	0xbf04b52b	-0.5183894
5	0xbe9217da	-0.28533822
6	0xbdf2dfb7	-0.118590765
7	0x3d99e9be	0.07515286
8	0x3f0f2086	0.55909
9	0x3d24d4c3	0.040241968
10	0xbf571b2f	-0.84025854
11	0x3ec7d2d3	0.39028034

features.4.banch1.1.running_var f4 [12]
0	0x3f0005d6	0.50008905
1	0x3efab6d2	0.48967606
2	0x3ed4ba29	0.4154828
3	0x3f0294d3	0.5100834
4	0x3f93e492	1.1554129
5	0x3e7668bf	0.24063395
6	0x3e41c8c1	0.18924238
7	0x3e9aa893	0.30206737
8	0x3f4965ff	0.7867126
9	0x3e33b1fb	0.17548363
10	0x3f80085c	1.0002551
11	0x3ec1ba17	0.37837288

features.4.banch1.2.weight f4 [12, 12, 1, 1]
0	0x3e08a62b	0.13344638
1	0x3ee69b94	0.45040572
2	0xbec132f0	-0.37734175
3	0x3e28ea49	0.16495623
4	0xbf256472	-0.6460639
5	0x3ddd5526	0.108072564
6	0x3e6e820a	0.23291793
7	0x3db6ca0a	0.08925255
8	0xbed3aa6c	-0.4134096
9	0xbe76c2b5	-0.24097712
10	0xbea4152c	-0.32047403
11	0x3ee2c5eb	0.44291624
12	0xbe36c7b5	-0.1784962
13	0xbe26c5da	-0.16286412
14	0xbe343439	-0.17598046
15	0x3ee8c65e	0.45463842
16	0xbde44915	-0.11146752
17	0xbf0a7e3f	-0.54098886
18	0x3e434b84	0.19071776
19	0xbdbf5bba	-0.09343667
20	0xbe0838b4	-0.1330288
21	0xbf00bd1a	-0.50288546
22	0xbde0626e	-0.10956274
23	0x3d474829	0.0486528
24	0xbecaa127	-0.39576074
25	0xbe7c859c	-0.24660343
26	0xbe216d2d	-0.15764304
27	0x3d843cc7	0.06456905
28	0xbe4af8ed	-0.1982152
29	0xbe62ffe5	-0.22167929
30	0x3e23e430	0.16005015
31	0xbe1e43d7	-0.15455566
32	0xbce2cd7b	-0.027685871
33	0x3f0a2777	0.5396647
34	0xbe672f0b	-0.22576539
35	0xbd4b7318	-0.04967031
36	0xbda6b086	-0.08139138
37	0x3dc536b3	0.09629574
38	0xbe346c1a	-0.17619362
39	0xbf2c8651	-0.6739245
40	0xbe918255	-0.28419748
41	0x3e9bc092	0.30420357
42	0x3db276cb	0.08714064
43	0x3e8e2552	0.27762848
44	0xbbb38bee	-0.0054793274
45	0xbe4dfaa4	-0.20115143
46	0x3c91e784	0.01781059
47	0x3ef06ff8	0.46960425
48	0xbeb34675	-0.35014692
49	0xbe89df0b	-0.2692798
50	0xbdc0dcf9	-0.09417147
51	0x3af58339	0.0018731124
52	0x3ec25ab9	0.3795984
53	0x3d90c009	0.07067878
54	0xbe7fcafb	-0.24979775
55	0xbe7ad15f	-0.24493931
56	0x3f252cc1	0.64521414
57	0x3e1f0dff	0.15532683
58	0xbd04243a	-0.03226111
59	0x3d7f5202	0.062334068
60	0x3dd952a4	0.106114656
61	0x3eb5c5f4	0.3550259
62	0xbdd6902e	-0.10476719
63	0xbe5f1225	-0.21784265
64	0xbe3b8ed6	-0.18316206
65	0x3ec97eec	0.39354646
66	0xbd485e24	-0.048917904
67	0xbc4cb77c	-0.012494918
68	0x3f3afbb1	0.730403
69	0xbe82c333	-0.2553955
70	0xbeea5944	-0.4577123
71	0x3eb1b52a	0.3470853
72	0xbee823dc	-0.4533986
73	0xbe933840	-0.28753853
74	0xbeb92bf0	-0.36166334
75	0x3e40a4d8	0.18812883
76	0xbe1215c8	-0.14266121
77	0xbe258b4a	-0.16166416
78	0xbe895335	-0.26821294
79	0xbe46a759	-0.19399776
80	0x3d1826c1	0.037146334
81	0x3e8784b0	0.2646842
82	0x3d11c952	0.035592385
83	0xbd60310c	-0.054734275
84	0x3e0aef87	0.13567935
85	0x3dda4309	0.10657317
86	0x3da5c780	0.08094692
87	0x3e73e81e	0.23819014
88	0x3eb0ff48	0.34569764
89	0x3db1093f	0.08644342
90	0xbe373fbd	-0.17895408
91	0xbe9873ed	-0.29775944
92	0x3f325b90	0.69670963
93	0xbd28a936	-0.041176997
94	0x3d78f573	0.060780954
95	0x3e54b435	0.20771869
96	0x3f24dbe9	0.64398056
97	0x3eaaacc1	0.33334926
98	0xbd74d755	-0.05977567
99	0x3e12a5e2	0.14321092
100	0xbb2912fe	-0.0025798674
101	0x3e709e43	0.23497872
102	0xbebadf7f	-0.3649864
103	0xbe8e43be	-0.27786058
104	0x3eff9194	0.49915755
105	0xbe31d730	-0.17367244
106	0x3e4daf13	0.20086317
107	0x3e8fadd1	0.280623
108	0xbe6515fc	-0.22371668
109	0x3e90c7c1	0.282774
110	0xbe4fb31a	-0.20283166
111	0xbe0cee4c	-0.13762778
112	0xbe34b8dc	-0.17648643
113	0xbf15e5d4	-0.58553815
114	0xbe2a1a8c	-0.1661169
115	0xbdb1c199	-0.08679504
116	0x3e9aafff	0.302124
117	0x3e5ad8c1	0.21371748
118	0xbe8aa8ff	-0.2708206
119	0xbe2847b7	-0.16433607
120	0xbe7192cb	-0.23591153
121	0xbd046e5c	-0.03233181
122	0x3d3d5514	0.046223715
123	0xbe83c700	-0.25737762
124	0xbdc5c41e	-0.09656547
125	0xbde4bcb5	-0.111688055
126	0xbe53d81c	-0.20687908
127	0xbebf7000	-0.37390137
128	0xbe9d53aa	-0.30727893
129	0x3e9bc2d2	0.30422074
130	0x3e858f55	0.26085916
131	0xbebe3dd3	-0.37156543
132	0x3c66ed0f	0.014094605
133	0xbdeb2cd4	-0.1148316
134	0xbeb68d2d	-0.35654584
135	0xbf1ba666	-0.6080078
136	0x3dee363f	0.1163144
137	0x3eb6d382	0.35708243
138	0x3eb7f79f	0.35931107
139	0xbddff0ce	-0.10934602
140	0x3e8374a2	0.2567492
141	0x3b83b1f1	0.004019015
142	0xbe0d499c	-0.13797611
143	0xbe076bca	-0.13224712

features.4.banch1.3.weight f4 [12]
0	0x3fde1fdf	1.7353476
1	0x3fabb900	1.3415833
2	0x3fa3d978	1.2800741
3	0x3f88eebb	1.0697855
4	0x3f9c3118	1.2202482
5	0x3f99f429	1.2027637
6	0x3f6138f6	0.8797754
7	0x3f98b331	1.1929685
8	0x3f8e1c49	1.1102382
9	0x3f71c156	0.9443563
10	0x3f8a841e	1.0821569
11	0x3f2109aa	0.6290537

features.4.banch1.3.bias f4 [12]
0	0x3fc301a0	1.5234871
1	0x3eb61698	0.35564113
2	0x3ca8ff82	0.020629648
3	0x3e85cdbb	0.26133522
4	0x3eac597b	0.33662018
5	0xbed9c8ff	-0.4253616
6	0x3e157dd6	0.14598784
7	0x3ef252f2	0.47328907
8	0x3e99485b	0.29938015
9	0x3d732ed9	0.05937085
10	0x3eb38d93	0.3506895
11	0xbeb2d176	-0.3492543

features.4.banch1.3.running_mean f4 [12]
0	0x3e2fdce3	0.17174105
1	0x3e3110b4	0.17291528
2	0x3e11afd8	0.14227235
3	0xbbb70cab	-0.005586227
4	0xbc8b7632	-0.017024133
5	0xbd88b5fa	-0.06675334
6	0x3e3a5154	0.18195087
7	0xbda66c2c	-0.08126101
8	0xbde3c142	-0.111208454
9	0x3d0fb7e9	0.0350875
10	0x3d1c49a4	0.038156167
11	0xbe3ccb6e	-0.18436977

features.4.banch1.3.running_var f4 [12]
0	0x405b8a85	3.4303296
1	0x3f851c01	1.0399171
2	0x3f8c237b	1.0948328
3	0x3f8db8a2	1.107197
4	0x400eee09	2.2332785
5	0x400f488d	2.2388031
6	0x3f73e294	0.95267606
7	0x40109b7f	2.2594907
8	0x4003a44c	2.056903
9	0x3fb79b2c	1.434423
10	0x3f62cf00	0.88597107
11	0x3f210b8d	0.6290825

features.4.banch2.0.weight f4 [12, 12, 1, 1]
0	0x3d1cbe9a	0.03826771
1	0x3b194085	0.0023384404
2	0x3e291f79	0.16515912
3	0x3e8943bf	0.268095
4	0x3eeb9c89	0.46017864
5	0xbe905383	-0.28188714
6	0x3deb1c48	0.114800036
7	0xbe8f4e32	-0.27989346
8	0xbd96ae45	-0.07357458
9	0xbdc6bb97	-0.09703749
10	0x3e01b133	0.12665252
11	0xbd8865b9	-0.06660027
12	0x3e886aef	0.26644084
13	0xbe90ec9a	-0.28305513
14	0xbe98f7bd	-0.2987651
15	0x3e9ad2c9	0.3023894
16	0x3d9fd3af	0.07804047
17	0xbea124a2	-0.3147326
18	0xbd0f1e31	-0.034940902
19	0x3e9ba126	0.30396384
20	0xbe45f467	-0.19331513
21	0xbd7bedd5	-0.06150611
22	0xbe50cd66	-0.20390853
23	0xbdb44ca0	-0.088036776
24	0xbe9ed120	-0.31018925
25	0x3eb2b96c	0.3490709
26	0xbe2cbe70	-0.16869521
27	0x3e1c2635	0.1524895
28	0x3e40093c	0.18753523
29	0x3e33cee8	0.17559397
30	0xbde8e55a	-0.1137187
31	0x3c6cea98	0.014460228
32	0x3e8fa896	0.28058308
33	0x3d0e1f45	0.03469779
34	0xbee3ed77	-0.4451711
35	0x3d0ba247	0.034090307
36	0xbe50ed4d	-0.20403023
37	0xbe4f4f7e	-0.20245168
38	0x3e92e40e	0.28689617
39	0x3d10f95b	0.035394054
40	0x3dcb29a9	0.099200554
41	0x3da8b143	0.08236935
42	0x3e806ba9	0.25082138
43	0xbccdbce9	-0.025114493
44	0xbf55d83a	-0.8353306
45	0xbdde2121	-0.108461626
46	0x3dad2384	0.0845404
47	0x3e8333f6	0.2562558
48	0x3e7fea03	0.24991612
49	0x3c9e2f49	0.019309657
50	0xbd2c928b	-0.04213194
51	0xbd522a2c	-0.05130975
52	0x3d6cd950	0.057824433
53	0x3e0124a3	0.12611632
54	0x3e0bc90a	0.13650909
55	0x3c876b4c	0.016530655
56	0xbf3a4dd4	-0.72775006
57	0xbe76e324	-0.24110085
58	0xbe76d2db	-0.24103872
59	0xbedf3d1e	-0.43601316
60	0x3e8ddb2c	0.27706277
61	0xbe640613	-0.22267942
62	0xbeb01cff	-0.34397122
63	0x3ba4ecca	0.0050331103
64	0xbe742945	-0.23843868
65	0x3e9cdbec	0.30636537
66	0x3cb921c7	0.022599114
67	0xbe1af83d	-0.15133758
68	0x3df48114	0.11938682
69	0xbf437297	-0.76346725
70	0xbecc921c	-0.39955223
71	0xbe0897c5	-0.13339145
72	0xbf0e481e	-0.5557879
73	0xbd338dfe	-0.043836586
74	0xbeab9140	-0.33509254
75	0xbe6202d3	-0.2207139
76	0xbad7f4b9	-0.0016476131
77	0x3cf12c46	0.029440057
78	0xbeeaefab	-0.45885977
79	0xbd9f7fa3	-0.07788017
80	0x3ea2eb1f	0.31820008
81	0xbd20a56c	-0.03922026
82	0x3ea24a7d	0.31697455
83	0xbe9e7bcc	-0.30953825
84	0x3b377361	0.0027992355
85	0x3e9108d9	0.28327063
86	0xbf151b9d	-0.5824526
87	0x3e5595d1	0.20857932
88	0xbe909689	-0.2823985
89	0xbda6ccf0	-0.081445575
90	0xbcc2d7b4	-0.023784496
91	0xbe939012	-0.28820854
92	0xbc81c059	-0.015838789
93	0x3de3cfce	0.1112362
94	0x3e0a9469	0.13533176
95	0x3ea849be	0.3286876
96	0x3e8054fd	0.2506484
97	0x3e17e9df	0.14835308
98	0x3dd851f3	0.105625056
99	0x3c051e7d	0.008124945
100	0x3e2c73cb	0.16841047
101	0x3db98947	0.09059387
102	0xbe191356	-0.14948782
103	0x3e3253ea	0.17414823
104	0xbf01302d	-0.50464135
105	0xbe03b91c	-0.12863582
106	0x3ed5f0a9	0.41785172
107	0x3e46541f	0.19368027
108	0x3e04523e	0.12921998
109	0x3e9984d7	0.2998416
110	0x3e5c1615	0.21492799
111	0xbe95bf08	-0.29247308
112	0xbefea98a	-0.49738723
113	0xbebd9cd6	-0.3703372
114	0x3d8a2347	0.0674501
115	0x3e29756f	0.16548704
116	0xbf1afbb9	-0.6054035
117	0xbe9d8a09	-0.30769375
118	0x3e69f1e6	0.22846183
119	0x3d0c1425	0.0341989
120	0xbe86d0fc	-0.26331317
121	0x3ce813dc	0.028329782
122	0x3cd1aa67	0.02559395
123	0xbea1146f	-0.31460902
124	0x3e960674	0.29301798
125	0x3eba5e20	0.36399937
126	0xbe8421f4	-0.25807154
127	0xbe002abd	-0.12516303
128	0xbba74aa9	-0.0051053357
129	0xbe9fcddf	-0.31211755
130	0xbe66d59d	-0.22542424
131	0x3e834dbe	0.2564525
132	0x3d9d15f4	0.07670203
133	0x3ee8bf3f	0.4545841
134	0x3e7403eb	0.2382962
135	0xbd920186	-0.07129197
136	0xbec7f928	-0.3905728
137	0xbe76815b	-0.24072783
138	0x3b26923e	0.0025416757
139	0x3e174f1c	0.14776272
140	0x3d103a89	0.035212073
141	0x3df74557	0.120737724
142	0xbe275162	-0.16339639
143	0x3dad3b26	0.08458547

features.4.banch2.1.weight f4 [12]
0	0x3fa4fa15	1.2888819
1	0x3f70ec6c	0.9411075
2	0x3fa561ad	1.2920433
3	0x3ed1f701	0.41008762
4	0x3f07d28b	0.5305564
5	0x3f8a6b52	1.0814002
6	0x3fcc0aff	1.5940856
7	0x3f8d7e03	1.1054081
8	0x3fc0e042	1.5068438
9	0x3f480286	0.7812885
10	0x3fa9ba61	1.3260003
11	0x3facab9a	1.3489869

features.4.banch2.1.bias f4 [12]
0	0xbdbbea42	-0.091755405
1	0x3e77a7d8	0.24185121
2	0x3d2a53ce	0.04158383
3	0x3f29673b	0.6617314
4	0x3f058281	0.5215226
5	0x3e5ce652	0.21572235
6	0x3cc90085	0.02453638
7	0x3da53fea	0.08068831
8	0xbe1e6ca5	-0.15471132
9	0x3eced010	0.40393114
10	0xbcd8ef4c	-0.026481293
11	0x3df27ac7	0.11839824

features.4.banch2.1.running_mean f4 [12]
0	0x3e9580af	0.2919974
1	0xbeb4982a	-0.35272342
2	0x3e930808	0.28717065
3	0xbebf855b	-0.3740643
4	0xbf5de606	-0.8667911
5	0xbf3a25c2	-0.72713864
6	0xbeac5eae	-0.33665985
7	0xbd252971	-0.040322725
8	0x3e824f86	0.25451297
9	0xbf41cd1d	-0.75703603
10	0xbddd5aaf	-0.10808312
11	0x3cdac8d2	0.026707087

features.4.banch2.1.running_var f4 [12]
0	0x3e92df06	0.28685778
1	0x3e9bb9cf	0.30415198
2	0x3f04c8ea	0.5186907
3	0x3f666874	0.9000313
4	0x3f4d0218	0.8008132
5	0x3fa53156	1.2905681
6	0x3f086ad0	0.5328798
7	0x3e85c741	0.2612858
8	0x3f342101	0.7036286
9	0x3f2e216c	0.6801975
10	0x3f0a1337	0.5393557
11	0x3f005cf9	0.50141865

features.4.banch2.3.weight f4 [12, 1, 3, 3]
0	0xbd0d56a0	-0.03450644
1	0xbee16f11	-0.4403005
2	0xbd9f9dc6	-0.07793765
3	0x3da19842	0.07890369
4	0xbed98164	-0.4248153
5	0x3efdb388	0.49551034
6	0x3eb58865	0.35455623
7	0x3e3c521f	0.18390702
8	0xbdbf32ef	-0.09335887
9	0x3e449c0d	0.19200154
10	0x3e53f88c	0.20700282
11	0x3e602998	0.21890867
12	0xbe67c98c	-0.22635478
13	0xbe8a5b67	-0.2702286
14	0x3edb3b36	0.42818612
15	0xbee6f1e2	-0.45106417
16	0x3ea5e551	0.32401517
17	0x3e094b71	0.13407685
18	0x3e7b9bce	0.24571154
19	0x3e2da653	0.16957979
20	0x3eb1dcf2	0.3473888
21	0xbdd6c6a5	-0.10487107
22	0x3e9fec4e	0.31234974
23	0xbe204e1c	-0.15654796
24	0xbd30d12d	-0.043168236
25	0x3eb7ab0c	0.35872686
26	0x3d694ee1	0.05695999
27	0x3ef9feeb	0.488273
28	0x3d9e59e7	0.07731991
29	0x3d1b62f8	0.03793618
30	0x3dcf32b5	0.101170935
31	0xbd9614be	-0.07328175
32	0xbe878407	-0.26467916
33	0x3e7ce08a	0.2469503
34	0xbd01a665	-0.031652827
35	0xbf0d9755	-0.5530904
36	0xbeba4284	-0.36378872
37	0x3e0cb2b2	0.13740042
38	0x3e39aab9	0.18131532
39	0xbeb4befb	-0.35301957
40	0x3d9a5336	0.075354025
41	0x3ed697e8	0.4191277
42	0xbee5c5ab	-0.4487737
43	0xbd4dc38c	-0.050235316
44	0x3e5e0e9a	0.21685258
45	0xbe8c7d09	-0.27439144
46	0xbe7174b2	-0.23579672
47	0xbec9709a	-0.3934372
48	0xbe1e1347	-0.15437041
49	0xbe198d9e	-0.14995429
50	0xbe84ab0f	-0.25911757
51	0x3ec7bd71	0.3901172
52	0x3edd490a	0.43219787
53	0xbe7ade28	-0.24498808
54	0xbe1af6c9	-0.15133204
55	0xbec0278a	-0.37530166
56	0xbea10e25	-0.31456104
57	0xbe6bcbcb	-0.2302696
58	0xbe622202	-0.22083285
59	0xbeebebc8	-0.46078324
60	0xbe6ca495	-0.23109658
61	0xbe593460	-0.21211386
62	0xbd99170c	-0.07475099
63	0x3e84ab20	0.25911808
64	0x3d3dc53e	0.046330683
65	0x3e92c60e	0.2866673
66	0x3d71b012	0.059005804
67	0x3e87ec1f	0.26547334
68	0xbe812826	-0.25225943
69	0x3ed025cd	0.4065384
70	0xbcd1d70d	-0.02561524
71	0xbcbb84c3	-0.022890454
72	0xbe78f069	-0.24310459
73	0x3e7bdae6	0.24595222
74	0x3c543e3d	0.012954292
75	0xbec1792e	-0.37787765
76	0x3d3fb0d9	0.046799514
77	0xbea8ad73	-0.3294483
78	0xbec366d9	-0.38164404
79	0x3f1a0fa8	0.6018014
80	0x3edf6501	0.43631747
81	0xbe99670b	-0.29961428
82	0x3d9a9362	0.07547642
83	0x3ed7a788	0.42120004
84	0x3b9a3e2e	0.0047071194
85	0x3d560440	0.052250147
86	0xbe681350	-0.22663617
87	0xbd8d6f00	-0.06905937
88	0x3eb87ae7	0.36031267
89	0xbee9e68c	-0.45683706
90	0x3d3dfc4c	0.046383187
91	0x3eff27dd	0.498351
92	0x3ed4b6a3	0.4154559
93	0xbd88f6ea	-0.0668772
94	0x3e7eb64d	0.2487423
95	0x3dbecf17	0.09316843
96	0xbd004701	-0.031317715
97	0xbea43c1f	-0.3207712
98	0x3d8b94a1	0.06815458
99	0x3c0505ab	0.008119027
100	0x3e9fe7b0	0.3123145
101	0xbd70933e	-0.05873417
102	0x3ecb8459	0.3974941
103	0xbdd28ddf	-0.10280966
104	0xbe1166ea	-0.14199415
105	0x3f193192	0.59841263
106	0x3d33d8db	0.04390798
107	0x3df00710	0.11720097

features.4.banch2.4.weight f4 [12]
0	0x3f7281f9	0.9472957
1	0x3f7a6261	0.97806364
2	0x3f2a5e31	0.66549975
3	0x3f91e238	1.1397161
4	0x3fb64dda	1.4242508
5	0x3f92557f	1.1432341
6	0x3f57c58b	0.842858
7	0x3f21a54c	0.6314285
8	0x3f9bca66	1.2171142
9	0x3fa0b2bd	1.2554547
10	0x3f5ed591	0.87044626
11	0x3f1b17bb	0.60583085

features.4.banch2.4.bias f4 [12]
0	0xbcab4ca7	-0.020910574
1	0xbd021ac8	-0.03176382
2	0xbd3ffc6e	-0.046871595
3	0x3dad4aa7	0.084615044
4	0xbdeece9f	-0.116605036
5	0xbd30a89c	-0.04312955
6	0x3d8cc1a0	0.068728685
7	0xbdbc0128	-0.09179908
8	0x3c94b960	0.0181548
9	0xbd6e8bf5	-0.058238942
10	0x3c98bfef	0.018646209
11	0x3ca783cb	0.020448586

features.4.banch2.4.running_mean f4 [12]
0	0x3d802b99	0.062583156
1	0x3e579b2c	0.21055287
2	0x3ef3e756	0.47637433
3	0x3b8c5e1c	0.0042836796
4	0xbda441d1	-0.08020366
5	0xbed4da1c	-0.41572654
6	0xbf8fc144	-1.1230855
7	0x3eaeec5f	0.34164712
8	0x3e06e5e6	0.13173637
9	0x3d171437	0.036884513
10	0x3ec5cba4	0.38631928
11	0x3ef3bdcc	0.4760574

features.4.banch2.4.running_var f4 [12]
0	0x3ed93ee8	0.42430806
1	0x3ef315c2	0.47477537
2	0x3e85ec51	0.26156858
3	0x3e581139	0.2110032
4	0x3ed30826	0.41217154
5	0x3e8c6d29	0.27427033
6	0x3f1bbc06	0.60833776
7	0x3e648fe0	0.22320509
8	0x3f3fb2da	0.7488228
9	0x3e1054af	0.14094804
10	0x3e9475c7	0.28996107
11	0x3f1fa336	0.62358415

features.4.banch2.5.weight f4 [12, 12, 1, 1]
0	0x3d6910a2	0.056900628
1	0xbe6203a3	-0.220717
2	0x3dca6c31	0.09883917
3	0x3e221cb8	0.15831268
4	0xbecfb2fc	-0.40566242
5	0x3e896d3d	0.26841155
6	0x3e7870c5	0.24261768
7	0x3e23c3cb	0.15992658
8	0xbe4670a9	-0.19378914
9	0xbf1ded4b	-0.61690205
10	0xbe8dbb11	-0.27681783
11	0x3e2981ed	0.16553469
12	0xbe8872f2	-0.26650196
13	0x3e890d29	0.26767853
14	0xbe0ab9f9	-0.13547505
15	0x3eb89137	0.3604829
16	0xbe55728c	-0.20844477
17	0xbcd66c66	-0.026174735
18	0xbbee662d	-0.007275364
19	0xbdce5329	-0.10074455
20	0xbee88ce0	-0.4541998
21	0x3e7045b6	0.23464093
22	0xbecc2e7a	-0.3987921
23	0x3e042f38	0.12908638
24	0xbd858439	-0.0651936
25	0x3d4fd00a	0.05073551
26	0xbdd84120	-0.105592966
27	0x3ca55363	0.020181363
28	0xbe063a57	-0.13108192
29	0xbef6d4ed	-0.48209324
30	0xbe736400	-0.23768616
31	0xbe537cd4	-0.20653087
32	0x3ea1357d	0.3148612
33	0x3e41220f	0.18860649
34	0x3ea4d6ca	0.3219512
35	0x3dab3d23	0.0836127
36	0x3e1406c9	0.14455713
37	0xbf0ff11c	-0.5622728
38	0x3eae2c8e	0.34018368
39	0xbd9b0b9c	-0.07570574
40	0xbee6d203	-0.450821
41	0xbe3378e0	-0.17526579
42	0x3de6a8ce	0.11262666
43	0x3d3c1a62	0.045923598
44	0xbc54832e	-0.012970729
45	0xbf14df9a	-0.5815369
46	0x3d302958	0.04300818
47	0xbe420a5c	-0.18949264
48	0x3efb7dd3	0.49119434
49	0x3e338005	0.17529304
50	0x3d2998fd	0.041405667
51	0x3e93fbfe	0.28903192
52	0xbe9d9fa8	-0.3078587
53	0xbcf2df91	-0.02964762
54	0x3eb211c5	0.34779182
55	0x3e9f4e54	0.31114447
56	0xbee8ab0c	-0.45442998
57	0xbcabf87a	-0.020992506
58	0xbe327370	-0.17426848
59	0xbdb78618	-0.08961123
60	0x3e998dc8	0.29990983
61	0xbda0ec98	-0.07857627
62	0x3eb19980	0.34687424
63	0x3e2a7650	0.16646695
64	0xbf258b37	-0.6466555
65	0x3d2c95b1	0.042134944
66	0xbe729b85	-0.23692138
67	0xbdfb8558	-0.12281293
68	0xbbe8f192	-0.0071088756
69	0xbdb500a8	-0.08838016
70	0xbe31ad15	-0.17351182
71	0xbe0e754e	-0.13911936
72	0xbda6f4e0	-0.08152175
73	0x3e0957eb	0.13412444
74	0x3e0fb8d9	0.14035358
75	0xbdd2350c	-0.10264024
76	0x3ed1c0d1	0.4096742
77	0xbdb2c65a	-0.08729239
78	0xbc9e4f09	-0.019324796
79	0x3e83b8aa	0.25726825
80	0x3f0206c5	0.5079158
81	0x3eb556f7	0.3541791
82	0x3dbefb0e	0.09325229
83	0x3de9b3d6	0.11411254
84	0xbe79cca8	-0.24394476
85	0x3e9b4282	0.3032418
86	0xbddbf7cf	-0.10740625
87	0x3dbbd58a	0.09171589
88	0xbc1af3ca	-0.009457538
89	0xbd9146f5	-0.07093612
90	0x3e3c05a9	0.18361534
91	0x3dcc48de	0.09974836
92	0xbeae129b	-0.3399857
93	0x3e3c6f2d	0.18401785
94	0xbe72737e	-0.2367687
95	0x3e9acbac	0.30233514
96	0x3d185542	0.037190683
97	0x3de41ecb	0.11138686
98	0xbe7edbdc	-0.24888557
99	0x3e4a16b5	0.19735225
100	0x3e82f8fc	0.25580585
101	0xbf19a600	-0.6001892
102	0xbe7d88e1	-0.24759246
103	0x3c848035	0.016174415
104	0xbda95341	-0.082678325
105	0x3d55a844	0.052162424
106	0x3cb57ac6	0.02215327
107	0xbe222f62	-0.15838388
108	0xbe80c798	-0.25152278
109	0xbeb9263d	-0.36161986
110	0x3b30cce8	0.0026977602
111	0x3f00cf59	0.5031639
112	0xbf0a39cf	-0.5399446
113	0x3e139ff1	0.14416482
114	0xbe1e468e	-0.15456602
115	0x3ded37d5	0.11582915
116	0xbe5027b4	-0.20327646
117	0x3e8b09e8	0.27155995
118	0x3e722803	0.23648076
119	0x3e6509c1	0.22367002
120	0xbab3d402	-0.00137198
121	0xbe2003f0	-0.15626502
122	0xbcc33f43	-0.023833876
123	0xbf0c6592	-0.54842484
124	0x3eb88e07	0.36045858
125	0x3d3b7103	0.045762073
126	0x3e08ad9e	0.1334748
127	0x3e2019d4	0.15634853
128	0x3e840e40	0.25792122
129	0x3e615d3d	0.22008224
130	0x3c9719b8	0.01844488
131	0x3d4fd5bc	0.050740942
132	0xbeaacbb1	-0.3335853
133	0x3ea3ac36	0.31967324
134	0xbdb9ac5d	-0.09066079
135	0x3c8dae1e	0.01729494
136	0x3e1e493f	0.15457629
137	0xbdd1b4c6	-0.10239558
138	0x3de1d50f	0.11026966
139	0xbc0418df	-0.00806257
140	0xb9d78e9e	-0.00041114254
141	0xbeb375c5	-0.3505079
142	0x3edd2cac	0.43198144
143	0x3e625df3	0.22106151

features.4.banch2.6.weight f4 [12]
0	0x3fbc8695	1.4728571
1	0x3f50a84b	0.81506795
2	0x3f31e070	0.6948309
3	0x3f9235a3	1.1422619
4	0x3f57a522	0.8423635
5	0x3fb006c1	1.3752061
6	0x3f889fe2	1.0673792
7	0x3f14bcf1	0.581008
8	0x3f987bb3	1.191275
9	0x3fa20f5b	1.2660936
10	0x3f8bda21	1.0925943
11	0x3f73fbe4	0.9530623

features.4.banch2.6.bias f4 [12]
0	0x3e89d2b5	0.2691857
1	0xbe5ed08b	-0.2175924
2	0xbe923de6	-0.2856285
3	0x3cd04ec6	0.025428187
4	0x3d8d09a4	0.068866044
5	0x3cf366e4	0.029712148
6	0x3c9c87e3	0.019107765
7	0xbe2560ae	-0.16150162
8	0xbe3fbcb2	-0.18724325
9	0x3eb3a19e	0.35084242
10	0x3e257b43	0.16160302
11	0x3d8f749b	0.070046626

features.4.banch2.6.running_mean f4 [12]
0	0x3da90cf4	0.08254424
1	0x3d2b5888	0.041832477
2	0x3d438ee2	0.047743686
3	0x3db092fc	0.08621785
4	0x3ce73b27	0.028226448
5	0x3d7d3fb6	0.061828338
6	0xbdc03233	-0.09384575
7	0x3ad2c934	0.0016081692
8	0xbb847103	-0.0040417924
9	0x3daa62b7	0.083196096
10	0xbdc531fa	-0.09628673
11	0x3cf6833b	0.030091872
