latest.pt (torch, 191608 bytes, 282 tensors)

conv1.0.weight f4 [6, 3, 3, 3]
-0.42957982 0.06388383 0.2143969 -0.26014516 -0.056875613 0.21037412 -0.124657504 0.1629128
0.13007635 0.11576756 0.12213637 0.41808563 0.021018742 0.30458593 0.30499387 0.14356743
0.2943376 0.4614301 -0.031874806 -0.06421843 0.14588201 -2.3715995e-06 0.14776258 0.013825686
-0.08643425 -0.059069518 0.16770868 -0.16675335 0.09572871 -0.14699934 -0.05439095 -0.23783687
-0.10215459 0.004864635 -0.19430473 -0.07834947 -0.18535529 -0.20559305 -0.20290348 -0.04832212
-0.36292204 -0.25908697 -0.01984926 -0.42236832 -0.24344282 0.1188787 0.124727696 -0.12741965
0.28957888 0.029701304 0.046515126 -0.075295724 -0.043637875 -0.11864804 -0.33409008 -0.20071976
-0.40458748 -0.4343909 -0.28684506 -0.19517803 -0.4212556 -0.040529776 -0.125311 -0.18189287
-0.08822152 -0.13067248 -0.41910884 -0.3157679 -0.17583682 -0.33342892 -0.20874493 -0.251251
-0.25463933 -0.016951496 -0.113509096 -0.08729662 0.16383733 -0.046004653 0.04281896 0.03482007
0.19081281 0.2705311 -0.055472746 0.04893811 0.18621439 0.027618343 0.022415629 0.23116538
0.0153980255 -0.07338328 0.23082234 0.08713154 0.20381919 0.0032762375 0.08341049 0.26930714
0.14771457 0.010800842 -0.0877541 0.023051908 0.2023491 -0.088416144 0.094303206 0.12604986
0.02257224 -0.11271048 0.16333573 0.025795285 0.3525234 0.15682502 0.3123292 0.3937287
0.395951 0.1486715 0.055611044 0.14400211 0.26683065 0.591196 0.56640154 0.07018608
0.475089 0.238638 0.19049647 0.16495448 0.13368681 -0.17957309 0.092859365 -0.0030035535
-0.15372224 0.19131652 0.18342899 -0.13237165 -0.10290841 -0.0938599 -0.24301416 -0.64863616
-0.47957507 -0.30340016 -0.430855 -0.07061732 -0.24711393 -0.20958166 -0.25984055 0.07509556
-0.24955739 -0.56511086 -0.20126164 -0.18492073 -0.3164048 -0.274402 0.0313683 -0.350716
-0.09024669 0.11397195 -0.10667824 0.056889575 0.027175762 0.029910922 0.13344921 0.15816891
-0.029975694 0.20410894
00000000: e3f1 dbbe 87d5 823d dc8a 5b3e bf31 85be
00000010: 67f6 68bd 506c 573e 6f4c ffbd 9dd2 263e
00000020: bc32 053e 8b17 ed3d a222 fa3d 520f d63e
00000030: 7f2f ac3c b0f2 9b3e 2828 9c3e 5703 133e
00000040: 6bb3 963e 9140 ec3e 288f 02bd f484 83bd
00000050: 1862 153e c527 1fb6 134f 173e 2185 623c
00000060: 7104 b1bd e1f2 71bd d3bb 2b3e 64c1 2abe
00000070: 6a0d c43d ff86 16be 0bc9 5ebd 828b 73be
00000080: 6d36 d1bd 8467 9f3b d2f7 46be b075 a0bd
00000090: c7cd 3dbe fc86 52be eec5 4fbe 6aed 45bd
000000a0: ebd0 b9be 0ca7 84be ea9a a2bc a940 d8be
000000b0: 1349 79be ad76 f33d 3c71 ff3d 4c7a 02be
000000c0: af43 943e 2650 f33c a586 3e3d a534 9abd
000000d0: a1bd 32bd befd f2bd db0d abbe 7b89 4dbe
000000e0: 1726 cfbe 7c68 debe 5bdd 92be c0dc 47be
000000f0: d0ae d7be 8d02 26bd 8751 00be 2042 3abe
00000100: 7cad b4bd 02cf 05be 6f95 d6be 55ac a1be
00000110: 910e 34be 32b7 aabe 3bc1 55be f9a3 80be
00000120: 1660 82be dddd 8abc 7577 e8bd 92c8 b2bd
00000130: f9c4 273e 606f 3cbd ef62 2f3d 7d9f 0e3d
00000140: 6f64 433e 0d83 8a3e 6437 63bd 5473 483d
00000150: fcae 3e3e dd3f e23c fba0 b73c 9eb6 6c3e
00000160: 0048 7c3c f949 96bd b15c 6c3e 0572 b23d
00000170: fab5 503e 25b6 563b 1ed3 aa3d a0e2 893e
00000180: 7d42 173e 04f6 303c 6cb8 b3bd 5bd7 bc3c
00000190: 9a34 4f3e 8613 b5bd 0a22 c13d 3713 013e
000001a0: 6be9 b83c c1d4 e6bd 7b41 273e a250 d33c
000001b0: f27d b43e bd96 203e 9de9 9f3e cf96 c93e
000001c0: 17ba ca3e 573d 183e 68c8 633d 4a75 133e
000001d0: 079e 883e 9f58 173f b1ff 103f b8bd 8f3d
000001e0: de3e f33e 855d 743e 8211 433e d4e9 283e
000001f0: 32e5 083e 02e2 37be 0d2d be3d 44d7 44bb
00000200: 5d69 1dbe 7ae8 433e cfd4 3b3e 6f8c 07be
00000210: a5c1 d2bd 9f39 c0bd b4d8 78be 050d 26bf
00000220: dd8a f5be 4457 9bbe 0799 dcbe d09f 90bd
00000230: 6f0b 7dbe 939c 56be d209 85be b3cb 993d
00000240: f98b 7fbe 1bab 10bf 8817 4ebe dc5b 3dbe
00000250: cfff a1be 6b7e 8cbe 0c7c 003d 0c91 b3be
00000260: 42d3 b8bd 206a e93d 1f7a dabd 0b05 693d
00000270: b49f de3c c007 f53c e9a6 083e 08f7 213e
00000280: 968f f5bc ef01 513e

conv1.1.weight f4 [6]
0.8229943 0.9648515 0.7062067 0.44901887 0.8204501 0.94163585
00000000: c1af 523f 8200 773f f6c9 343f cde5 e53e
00000010: 0509 523f 0c0f 713f

conv1.1.bias f4 [6]
0.6486266 0.29053235 0.5653994 0.31014475 0.7525958 0.16966923
00000000: 650c 263f a8c0 943e 04be 103f 4bcb 9e3e
00000010: 1eaa 403f c5bd 2d3e

conv1.1.running_mean f4 [6]
0.23968099 -0.25156438 -0.4221591 0.20959665 0.3960223 -0.3430109
00000000: ef6e 753e 0ccd 80be 3d25 d8be 81a0 563e
00000010: 6fc3 ca3e 209f afbe

conv1.1.running_var f4 [6]
0.13628614 0.1328403 0.3497235 0.0763988 0.3375621 0.27944767
00000000: 988e 0b3e 4a07 083e f50e b33e f976 9c3d
00000010: f1d4 ac3e c413 8f3e

features.0.banch1.0.weight f4 [6, 1, 3, 3]
0.13307612 -0.2021494 0.26225156 0.37707794 0.15350434 -0.20048147 0.54247576 0.14076878
-0.16797067 -0.30693874 -0.22522143 -0.090997435 0.43062568 -0.007869246 0.10648823 0.49582282
0.3036643 0.14404202 0.43275398 0.045526814 -0.5317864 0.2994358 0.5477074 0.029897816
-0.06386121 0.2615669 -0.08307175 0.5214001 0.48425573 0.068753265 0.17143567 -0.07389813
0.057772674 -0.1317436 -0.0018444605 0.15077423 0.14869235 0.5980038 0.036486115 0.2987945
0.71670943 -0.21852186 -0.03097638 0.31025267 -0.065014005 -0.13725 -0.16081959 -0.4387664
0.21177088 -0.073349185 0.21506938 0.36791414 0.5372759 0.1520504
00000000: 1b45 083e 4100 4fbe d645 863e 5c10 c13e
00000010: 3e30 1d3e 044b 4dbe b1df 0a3f b125 103e
00000020: 8100 2cbe 1327 9dbe 72a0 66be dd5c babd
00000030: f87a dc3e 03ee 00bc 8016 da3d 7ddc fd3e
00000040: e379 9b3e c07f 133e ee91 dd3e 537a 3a3d
00000050: 2723 08bf a64f 993e 8d36 0c3f 44ec f43c
00000060: abc9 82bd 19ec 853e 8621 aabd 7a7a 053f
00000070: 5ef0 f73e 83ce 8c3d d58c 2f3e e757 97bd
00000080: 0aa3 6c3d cbe7 06be d3c1 f1ba 8f64 1a3e
00000090: cf42 183e c716 193f 7772 153d 98fb 983e
000000a0: 457a 373f 32c4 5fbe 2dc2 fdbc 70d9 9e3e
000000b0: 1026 85bd 448b 0cbe e4ad 24be fda5 e0be
000000c0: 77da 583e 1938 96bd 263b 5c3e 3e5f bc3e
000000d0: ea8a 093f 1ab3 1b3e

features.0.banch1.1.weight f4 [6]
0.75303376 1.1603227 1.3375192 0.8535205 1.1130772 0.9074828
00000000: d2c6 403f 7485 943f d433 ab3f 5280 5a3f
00000010: 5079 8e3f cb50 683f

features.0.banch1.1.bias f4 [6]
0.010841128 -0.10213195 -0.04435045 -0.0024414982 -0.020551594 -0.07110176
00000000: fd9e 313c 8e2a d1bd d1a8 35bd 8b01 20bb
00000010: d15b a8bc cd9d 91bd

features.0.banch1.1.running_mean f4 [6]
0.8471089 0.45593742 0.70932263 0.5063798 1.6660469 0.285347
00000000: 21dc 583f a170 e93e 2b96 353f 1ba2 013f
00000010: 0641 d53f 0119 923e

features.0.banch1.1.running_var f4 [6]
1.4781284 0.10272054 0.10627892 0.42139333 3.680908 0.07238326
00000000: 5033 bd3f 255f d23d c3a8 d93d dec0 d73e
00000010: ff93 6b40 ad3d 943d

features.0.banch1.2.weight f4 [6, 6, 1, 1]
0.4002243 0.01944699 -0.31835455 0.31309387 0.015129326 -0.13523588 0.17700393 -0.5025519
-0.5019824 -0.08237909 0.37441573 -0.22909944 -0.1495182 0.1934329 0.4312714 -0.4363567
-0.09136831 0.19811383 -0.03630034 -0.101383634 0.22723357 -0.46094197 -0.5727178 0.0947188
-0.053596362 -0.18730444 -0.6987035 -0.07887185 -0.0023259276 -0.29523242 -0.01281243 0.4457183
-0.25700486 0.23116668 0.64492995 0.37216362
00000000: 33ea cc3e 4b4f 9f3c 5eff a2be d74d a03e
00000010: fee0 773c 467b 0abe 8540 353e 3ea7 00bf
00000020: eb81 00bf 5eb6 a8bd 6bb3 bf3e 0b99 6abe
00000030: 4d1b 19be 4613 463e 9bcf dc3e 256a dfbe
00000040: 4f1f bbbd 5ade 4a3e aaaf 14bd 39a2 cfbd
00000050: ebaf 683e 9600 ecbe a29d 12bf eefb c13d
00000060: dc87 5bbd bccc 3fbe 3cde 32bf 9187 a1bd
00000070: 976e 18bb b428 97be 3aeb 51bc 3035 e43e
00000080: 2496 83be f5b6 6c3e 211a 253f 3b8c be3e

features.0.banch1.3.weight f4 [6]
0.80234134 1.3157159 0.9090735 0.72784466 1.1395044 1.1551956
00000000: 3e66 4d3f 6169 a83f 0ab9 683f 0754 3a3f
00000010: 48db 913f 73dd 933f

features.0.banch1.3.bias f4 [6]
-0.14137986 0.21980666 -0.050706435 -0.1639688 0.24263358 0.5092639
00000000: e2c5 10be ff14 613e 8db1 4fbd 70e7 27be
00000010: f074 783e 1e5f 023f

features.0.banch1.3.running_mean f4 [6]
0.02545274 0.08805244 -0.053177282 0.0032989825 0.07291674 -0.07042705
00000000: 4482 d03c d654 b43d 6cd0 59bd be33 583b
00000010: 5f55 953d 0f3c 90bd

features.0.banch1.3.running_var f4 [6]
0.8136026 2.4081504 1.5328159 1.4557561 1.4808247 1.1913462
00000000: 4348 503f 231f 1a40 5033 c43f 3756 ba3f
00000010: aa8b bd3f 087e 983f

features.0.banch2.0.weight f4 [6, 6, 1, 1]
0.24049245 0.1640642 0.41119355 0.10393784 0.09296041 0.19091769 -0.21346773 0.36531073
0.39654997 -0.024345212 -0.32261002 0.63386893 0.1650509 0.7109331 0.6503249 0.29229867
-0.33783948 0.19145347 -0.69349164 0.34440875 0.19675916 -0.055086285 0.08142904 -0.43951085
-0.09704983 0.25329018 0.20373422 0.12591344 0.44414392 -0.14625837 -0.30065957 -0.22475271
-0.5160607 -0.11522997 -0.91138405 0.050829872
00000000: a743 763e 7200 283e f687 d23e 5ddd d43d
00000010: 0762 be3d ed7f 433e 4997 5abe 020a bb3e
00000020: 9908 cb3e 9c6f c7bc 242d a5be 3c45 223f
00000030: 1a03 293e b6ff 353f b17b 263f 2ca8 953e
00000040: 4cf9 acbe 610c 443e ab88 31bf 5856 b03e
00000050: 3c7b 493e 28a2 61bd 45c4 a63d 9107 e1be
00000060: 10c2 c6bd 40af 813e b49f 503e 74ef 003e
00000070: d566 e33e c1c4 15be 0df0 99be 9325 66be
00000080: 8e1c 04bf b1fd ebbd 7750 69bf fc32 503d

features.0.banch2.1.weight f4 [6]
0.6954491 0.865467 0.82430255 1.0278119 0.57944167 1.2908705
00000000: f408 323f 3f8f 5d3f 7e05 533f 578f 833f
00000010: 4a56 143f 3f3b a53f

features.0.banch2.1.bias f4 [6]
-0.11101173 -0.25131333 0.32028994 0.1732104 -0.28123033 -0.08694889
00000000: 1e5a e3bd 24ac 80be 0bfd a33e 115e 313e
00000010: 6cfd 8fbe 4212 b2bd

features.0.banch2.1.running_mean f4 [6]
0.85027236 0.2831629 0.9395241 -0.40455085 0.65440667 -1.7334168
00000000: 73ab 593f bafa 903e a784 703f 4a21 cfbe
00000010: 3287 273f 9ae0 ddbf

features.0.banch2.1.running_var f4 [6]
0.12121548 0.7274873 0.1992655 0.58206165 0.18612684 1.5742651
00000000: d23f f83d 9c3c 3a3f 410c 4c3e fe01 153f
00000010: 0998 3e3e 8581 c93f

features.0.banch2.3.weight f4 [6, 1, 3, 3]
0.08901131 0.0050763446 -0.0015795568 0.2293754 -0.007201149 0.5343431 -0.25296253 0.017511189
0.49125215 -0.01735447 -0.05983747 -0.52640253 0.4405788 0.45145047 0.0109618455 -0.057735007
0.45517662 0.20088848 0.2556125 0.42053354 0.3205681 -0.109223895 0.32631186 -0.08793373
-0.018934866 0.036640435 0.350192 0.8648602 0.40250352 -0.27124712 0.4526943 0.06295062
-0.07681805 -0.30612066 -0.209137 -0.3328841 -0.21028318 -0.19021043 -0.2055876 0.14050743
-0.46319288 0.11764687 -0.14601253 0.021025235 0.00811632 -0.41105694 -0.50675625 0.008249039
-0.32238054 -0.35017428 0.36581454 0.06536586 0.17850088 0.32901096
00000000: 904b b63d 7757 a63b 2209 cfba 63e1 6a3e
00000010: 9ef7 ebbb b6ca 083f 4e84 81be a073 8f3c
00000020: 6785 fb3e f62a 8ebc 2318 75bd 51c2 06bf
00000030: 8b93 e13e 8424 e73e 5099 333c 8b7b 6cbd
00000040: e90c e93e b6b5 4d3e a4df 823e 2c50 d73e
00000050: 8121 a43e c7b0 dfbd 5912 a73e 9916 b4bd
00000060: 4b1d 9bbc 4814 163d 5e4c b33e 7a67 5d3f
00000070: f114 ce3e e7e0 8abe 8cc7 e73e 41ec 803d
00000080: c852 9dbd d9bb 9cbe 0228 56be c96f aabe
00000090: 7954 57be 86c6 42be 8e85 52be 2ee1 0f3e
000000a0: 9e27 edbe d8f0 f03d 4f84 15be 1d3d ac3c
000000b0: 50fa 043c 0e76 d2be c7ba 01bf fa26 073c
000000c0: 100f a5be 0b4a b3be 0b4c bb3e 89de 853d
000000d0: efc8 363e 2074 a83e

features.0.banch2.4.weight f4 [6]
0.56466025 1.1625683 0.5271487 1.2086382 0.59686595 1.4288541
00000000: 938d 103f 0acf 943f 38f3 063f a8b4 9a3f
00000010: 35cc 183f b1e4 b63f

features.0.banch2.4.bias f4 [6]
0.003964032 0.011918395 0.050388012 -0.06704331 -0.07296845 0.074407056
00000000: b6e4 813b 5f45 433c a963 4e3d 014e 89bd
00000010: 7c70 95bd ba62 983d

features.0.banch2.4.running_mean f4 [6]
0.18672451 0.14998198 0.6780186 0.24454857 -0.10638397 -0.19878756
00000000: b634 3f3e e094 193e a192 2d3f f16a 7a3e
00000010: d7df d9bd f78e 4bbe

features.0.banch2.4.running_var f4 [6]
0.33351293 0.054385174 0.44720805 0.17162105 0.11883405 0.08270482
00000000: 35c2 aa3e fdc2 5e3d 74f8 e43e 6ebd 2f3e
00000010: 445f f33d 2561 a93d

features.0.banch2.5.weight f4 [6, 6, 1, 1]
-0.10922046 -0.23064928 -0.16063423 0.43458423 0.19163801 -0.83437383 -0.104993045 0.28707397
-0.34106076 0.67226547 0.3136427 -0.27655342 -0.33924156 0.39569727 -0.12349389 0.3953601
-0.22148238 -0.13150153 -0.0488599 -0.29968876 -0.089997895 -0.24600087 0.2617225 0.33292702
-0.2759601 -0.4496559 -0.159112 0.26335603 -0.042050865 -0.3261678 0.0873568 0.49860173
0.1324864 0.18538801 0.16955471 -0.237948
00000000: faae dfbd 532f 6cbe 4d7d 24be d381 de3e
00000010: c13c 443e 8699 55bf 9806 d7bd 5cfb 923e
00000020: 849f aebe 9719 2c3f c795 a03e 6998 8dbe
00000030: 12b1 adbe d598 ca3e 5dea fcbd a46c ca3e
00000040: 47cc 62be 56a8 06be 5221 48bd ce70 99be
00000050: d150 b8bd a7e7 7bbe 7e00 863e 6975 aa3e
00000060: a44a 8dbe 4c39 e6be 42ee 22be 9ad6 863e
00000070: 873d 2cbd 77ff a6be 1fe8 b23d ba48 ff3e
00000080: 84aa 073e 5bd6 3d3e c09f 2d3e a4a8 73be

features.0.banch2.6.weight f4 [6]
1.4465959 1.2715861 0.91026056 0.9349472 0.6769996 1.0890633
00000000: 0e2a b93f 55c3 a23f d606 693f b358 6f3f
00000010: d94f 2d3f 6d66 8b3f

features.0.banch2.6.bias f4 [6]
0.4644697 0.6129306 -0.2165776 0.15332113 0.112959124 -0.25564766
00000000: f9ce ed3e 05e9 1c3f 85c6 5dbe 3700 1d3e
00000010: 1d57 e73d 40e4 82be

features.0.banch2.6.running_mean f4 [6]
-0.1167054 -0.10017156 -0.020196278 0.0128789 -0.052782744 -0.029254727
00000000: 3e03 efbd bf26 cdbd aa72 a5bc 0602 533c
00000010: b832 58bd 9ca7 efbc

features.0.banch2.6.running_var f4 [6]
2.6542153 1.6593579 0.69045 0.80443877 0.6719643 0.9418537
00000000: aade 2940 d765 d43f 55c1 303f b3ef 4d3f
00000010: da05 2c3f 531d 713f

features.1.banch2.0.weight f4 [6, 6, 1, 1]
0.25294045 -0.30122906 -0.34032753 0.23205596 -0.45261753 0.47743225 -0.1496995 -0.26770708
0.5383032 0.06181458 0.077902496 -0.33735287 0.1152821 0.4962082 -0.2177967 -0.30757532
0.12602827 -0.33871192 -0.022396697 0.21517687 0.5078911 -0.04741896 -0.47790214 -0.6497141
-0.09918477 -0.15713532 0.014796449 0.20062149 -0.66473824 -0.27143148 -0.13640364 -0.24436677
-0.29564217 -0.4828083 0.5192324 0.20640801
00000000: 6981 813e b23a 9abe 693f aebe 14a0 6d3e
00000010: 7cbd e7be 0072 f43e d34a 19be e710 89be
00000020: 3dce 093f 4931 7d3d 588b 9f3d 84b9 acbe
00000030: 0619 ec3d 000f fe3e 1906 5fbe 837a 9dbe
00000040: 8e0d 013e a66b adbe 4779 b7bc 5357 5c3e
00000050: 2705 023f 623a 42bd 97af f4be aa53 26bf
00000060: 6221 cbbd 15e8 20be ce6c 723c b86f 4d3e
00000070: 492c 2abf 11f9 8abe 65ad 0bbe 483b 7abe
00000080: 695e 97be a632 f7be 6aec 043f 9f5c 533e

features.1.banch2.1.weight f4 [6]
0.52939576 1.3029841 0.8896193 0.90868664 0.59257853 1.2949786
00000000: 7b86 073f 2fc8 a63f 17be 633f b09f 683f
00000010: 3ab3 173f dcc1 a53f

features.1.banch2.1.bias f4 [6]
0.6028346 0.07098078 0.33500597 0.28535616 0.44942436 -0.11469321
00000000: 5e53 1a3f 5f5e 913d e785 ab3e 341a 923e
00000010: f31a e63e 46e4 eabd

features.1.banch2.1.running_mean f4 [6]
-0.3660255 0.13069731 -0.009409638 -0.16383791 -0.5524978 -0.041682728
00000000: b267 bbbe 84d5 053e e22a 1abc 20c5 27be
00000010: 7f70 0dbf 82bb 2abd

features.1.banch2.1.running_var f4 [6]
0.72270226 0.25355628 0.2086707 0.6035425 0.4945423 0.3978559
00000000: 0403 393f 21d2 813e c6ad 553e c381 1a3f
00000010: a634 fd3e c5b3 cb3e

features.1.banch2.3.weight f4 [6, 1, 3, 3]
-0.20573814 -0.18627863 0.60039824 0.37080404 -0.2374381 -0.022144465 0.31029367 -0.46303383
-0.14446582 -0.23647782 -0.22714694 0.46817952 0.30509633 0.2858037 0.24502304 -0.15337904
0.34011742 0.085778914 0.3233278 0.05612743 -0.10088064 -0.0806454 -0.7602482 -0.027485125
-0.4318853 -0.33371168 -0.03708537 0.5428983 0.5445878 0.41784608 0.20970953 -0.039871167
-0.4376149 0.001429271 -0.19613114 -0.050295655 -0.33983994 0.29069522 -0.084116556 -0.022754708
0.63043314 0.05218531 0.33153376 0.16565713 -0.21701802 0.6107524 0.634473 -0.18099354
-0.30386096 -0.04592159 -0.16672322 0.4671842 0.17268966 0.08517313
00000000: 05ad 52be d3bf 3ebe b3b3 193f 07da bd3e
00000010: f922 73be 4f68 b5bc d0de 9e3e c512 edbe
00000020: d9ee 13be 3e27 72be 3599 68be 3ab5 ef3e
00000030: 9635 9c3e dd54 923e 52e7 7a3e 650f 1dbe
00000040: df23 ae3e dbac af3d 398b a53e e0e5 653d
00000050: 829a cebd 6a29 a5bd a09f 42bf 7c28 e1bc
00000060: 1220 ddbe 42dc aabe d4e6 17bd 62fb 0a3f
00000070: 1b6a 0b3f ecef d53e 18be 563e f34f 23bd
00000080: 0f0f e0be 6056 bb3a 9ad6 48be d102 4ebd
00000090: 80ff adbe 01d6 943e 4d45 acbd 1568 babc
000000a0: 1164 213f 43c0 553d cbbe a93e 06a2 293e
000000b0: f939 5ebe 455a 1c3f d36c 223f 5f56 39be
000000c0: aa93 9bbe 4718 3cbd 7eb9 2abe c432 ef3e
000000d0: 8fd5 303e 406f ae3d

features.1.banch2.4.weight f4 [6]
1.0557551 1.1291589 0.7061918 1.1337262 0.9365548 1.0553114
00000000: fc22 873f 4788 903f fcc8 343f f11d 913f
00000010: 0ec2 6f3f 7214 873f

features.1.banch2.4.bias f4 [6]
-0.042775765 0.02470761 0.014827876 0.1560163 0.048384707 0.16707887
00000000: a435 2fbd 9d67 ca3c 9ff0 723c bdc2 1f3e
00000010: 0b2f 463d b916 2b3e

features.1.banch2.4.running_mean f4 [6]
-0.027404107 0.53004 -0.6808249 0.4299784 0.46291736 0.52658546
00000000: 947e e0bc b4b0 073f 8a4a 2ebf 2126 dc3e
00000010: 8103 ed3e 4ece 063f

features.1.banch2.4.running_var f4 [6]
0.15294528 0.627203 0.56035006 0.30325383 0.10419976 0.9124449
00000000: b09d 1c3e 6090 203f 1a73 0f3f 1644 9b3e
00000010: af66 d53d fd95 693f

features.1.banch2.5.weight f4 [6, 6, 1, 1]
-0.02725879 -0.1646674 -0.3201916 0.4539266 -0.3977379 -0.49908403 0.82672864 -0.44333395
-0.009448638 0.19343258 0.03301253 -0.14591698 -0.1681916 0.21207896 0.2395878 0.2982524
0.02571534 -0.26223752 0.1294702 0.52737385 -0.3924584 0.06730726 -0.06612037 -0.3366734
-0.14056234 0.3552209 -0.00911345 0.42768604 0.1414568 -0.1082153 0.18153398 0.1448468
0.3096098 0.2288791 0.62065667 -0.27980098
00000000: d34d dfbc 929e 28be 27f0 a3be 1169 e83e
00000010: 4da4 cbbe f187 ffbe 7da4 533f abfc e2be
00000020: 76ce 1abc 3113 463e 2638 073d 436b 15be
00000030: 6b3a 2cbe 3a2b 593e 8156 753e 8ab4 983e
00000040: faa8 d23c ff43 86be d693 043e f901 073f
00000050: 4ff0 c8be 64d8 893d 1e6a 87bd 7560 acbe
00000060: 93ef 0fbe 84df b53e 9450 15bc aaf9 da3e
00000070: 0dda 103e fc9f ddbd 0be4 393e b852 143e
00000080: 2d85 9e3e 485f 6a3e 5be3 1e3f 1342 8fbe

features.1.banch2.6.weight f4 [6]
1.0700308 1.3465692 0.6391372 1.0790663 1.0052334 0.93814474
00000000: c5f6 883f 615c ac3f 7f9e 233f d81e 8a3f
00000010: 7dab 803f 412a 703f

features.1.banch2.6.bias f4 [6]
0.45534146 0.39454052 -0.13090542 -0.071750216 0.21979734 -0.05251
00000000: 8422 e93e 3701 ca3e 120c 06be c7f1 92bd
00000010: 8e12 613e ba14 57bd

features.1.banch2.6.running_mean f4 [6]
-0.04566116 -0.04258321 0.019440353 -0.046559256 0.070283346 0.020243354
00000000: 3207 3bbd bb6b 2ebd 6041 9f3c ebb4 3ebd
00000010: b7f0 8f3d 64d5 a53c

features.1.banch2.6.running_var f4 [6]
0.76310086 0.8197676 0.462062 0.6836669 0.61193484 0.9143504
00000000: 945a 433f 4adc 513f 6493 ec3e cb04 2f3f
00000010: c3a7 1c3f de12 6a3f

features.2.banch2.0.weight f4 [6, 6, 1, 1]
0.38306484 -0.16490817 0.2092336 -0.15614845 0.3554789 -0.083312236 -0.6066518 0.11997906
-0.4038639 -0.27591833 0.13806798 -0.06625486 0.109175116 -0.39338794 -0.010606177 0.5343285
0.6030499 -0.11670335 -0.11331081 -0.26772356 0.37826732 -0.5299912 -0.2090581 -0.21773587
0.13194881 -0.22945914 -0.39344844 -0.10862633 -0.10307485 0.70873815 -0.4255594 0.3066913
0.085167855 0.27011117 -0.14412354 -0.42702708
00000000: 1321 c43e b0dd 28be 5541 563e 61e5 1fbe
00000010: 5501 b63e 9b9f aabd 884d 1bbf 95b7 f53d
00000020: 40c7 cebe 2b45 8dbe b161 0d3e a1b0 87bd
00000030: 3497 df3d 256a c9be 88c5 2dbc c1c9 083f
00000040: 7a61 1a3f 2a02 efbd 7f0f e8bd 1013 89be
00000050: 41ac c13e 81ad 07bf 5413 56be 27f6 5ebe
00000060: 971d 073e 56f7 6abe 1372 c9be 7b77 debd
00000070: e818 d3bd dd6f 353f ece2 d9be a406 9d3e
00000080: 7c6c ae3d 034c 8a3e 1f95 13be 4ba3 dabe

features.2.banch2.1.weight f4 [6]
1.1726515 1.7978585 1.0972627 1.4033663 1.1658056 0.64118475
00000000: 7219 963f 3a20 e63f 1b73 8c3f 82a1 b33f
00000010: 1e39 953f af24 243f

features.2.banch2.1.bias f4 [6]
-0.022484193 -0.030360945 -0.053749323 0.10590899 -0.22744735 0.41371837
00000000: c530 b8bc 84b7 f8bc 4028 5cbd d0e6 d83d
00000010: f5e7 68be e5d2 d33e

features.2.banch2.1.running_mean f4 [6]
0.31105575 -0.7379442 0.34328136 -0.5003583 0.0709291 -0.28480402
00000000: b342 9f3e e9e9 3cbf 93c2 af3e 7b17 00bf
00000010: 4743 913d d5d1 91be

features.2.banch2.1.running_var f4 [6]
0.48079714 0.399899 0.2337104 0.3783546 0.19555031 0.42346168
00000000: 0b2b f63e 90bf cc3e c751 6f3e b2b7 c13e
00000010: 573e 483e f8cf d83e

features.2.banch2.3.weight f4 [6, 1, 3, 3]
-0.5838541 0.09522616 0.56362337 0.010899147 0.14049387 -0.06758511 0.0083534205 0.10564361
-0.018322634 -0.3572234 -0.09206552 0.47089094 0.1327473 0.33780742 -0.04701705 0.10086257
-0.16613758 -0.0068892576 -0.26591584 -0.6673095 0.3168336 0.3401089 -0.40053546 0.22819704
0.070638664 0.27768117 -0.089849144 0.2551008 0.7874675 -0.119974345 0.10270117 0.13943686
-0.10349143 0.24688455 0.16748872 0.17333336 0.10783295 -0.2659538 0.059884988 0.45778048
0.41803887 0.5283671 0.22531824 0.18133135 -0.26220468 0.12115747 0.12568171 -0.8359246
0.35952243 -0.24352294 -0.54628676 0.234097 0.15614328 -0.055073567
00000000: 7677 15bf ef05 c33d 9f49 103f 5692 323c
00000010: a0dd 0f3e 106a 8abd c9dc 083c ad5b d83d
00000020: 5919 96bc fce5 b6be d98c bcbd 9e18 f13e
00000030: e9ee 073e 18f5 ac3e f394 40bd 0991 ce3d
00000040: f81f 2abe 48bf e1bb 1f26 88be ccd4 2abf
00000050: 0338 a23e c122 ae3e fc12 cdbe 7cac 693e
00000060: 01ab 903d 3a2c 8e3e d402 b8bd 929c 823e
00000070: 7897 493f 1cb5 f5bd fe54 d23d 89c8 0e3e
00000080: 51f3 d3bd 4ecf 7c3e 2a82 2b3e 4d7e 313e
00000090: 86d7 dc3d 192b 88be f649 753d 3462 ea3e
000000a0: 3109 d63e 1143 073f d3b9 663e edae 393e
000000b0: b13f 86be 6821 f83d b5b2 003e 28ff 55bf
000000c0: 5313 b83e 145e 79be 73d9 0bbf 20b7 6f3e
000000d0: 06e4 1f3e d294 61bd

features.2.banch2.4.weight f4 [6]
1.1582952 0.7180169 0.9399557 1.0082434 0.9048186 1.2047303
00000000: 0443 943f f5cf 373f f0a0 703f 1f0e 813f
00000010: 31a2 673f 9a34 9a3f

features.2.banch2.4.bias f4 [6]
-0.10321677 0.024170965 0.019335408 -0.050252445 -0.005416024 0.1012623
00000000: 5063 d3bd 3002 c63c 4a65 9e3c 82d5 4dbd
00000010: e778 b1bb 9c62 cf3d

features.2.banch2.4.running_mean f4 [6]
0.16832353 0.26390865 -0.038886588 0.8974754 0.5279431 -0.28227076
00000000: 015d 2c3e 091f 873e 8b47 1fbd f3c0 653f
00000010: 4727 073f cb85 90be

features.2.banch2.4.running_var f4 [6]
0.21510364 0.21155238 0.41909218 0.6519425 0.496443 0.41938007
00000000: 2144 5c3e 30a1 583e 4093 d63e b4e5 263f
00000010: c72d fe3e fcb8 d63e

features.2.banch2.5.weight f4 [6, 6, 1, 1]
-0.27052242 -0.090400785 0.38002035 0.20296098 -0.39300826 -0.45158747 -0.55301535 0.07752012
0.075984426 0.3015648 0.15390043 0.1778876 -0.43466756 0.3212966 -0.08143808 -0.22295658
0.094312996 -0.60708314 0.115434445 -0.11334167 -0.47649345 0.0589196 0.37489325 0.7801913
-0.36048657 0.09905834 -0.05606101 -0.26286575 -0.24437317 0.23800802 0.019023923 0.55071205
-0.17454106 -0.6283849 -0.12407673 0.21044593
00000000: ea81 8abe 0c24 b9bd 0792 c23e 01d5 4f3e
00000010: 6138 c9be 7936 e7be 6a92 0dbf dec2 9e3d
00000020: b99d 9b3d b466 9a3e 1398 1d3e 2b28 363e
00000030: bf8c debe fd80 a43e 02c9 a6bd bb4e 64be
00000040: 2c27 c13d cd69 1bbf e568 ec3d ad1f e8bd
00000050: f3f6 f3be ae55 713d 02f2 bf3e 9eba 473f
00000060: b291 b8be 19df ca3d 3ba0 65bd 5796 86be
00000070: f63c 7abe 60b8 733e 0fd8 9b3c 77fb 0c3f
00000080: e4ba 32be d5dd 20bf f11b febd 237f 573e

features.2.banch2.6.weight f4 [6]
1.056872 0.82995665 1.204098 0.91439134 0.75894296 0.79527575
00000000: 9547 873f 0a78 543f e21f 9a3f 8d15 6a3f
00000010: 164a 423f 3197 4b3f

features.2.banch2.6.bias f4 [6]
0.043873295 0.11596256 0.47331998 0.42667282 0.008787999 -0.017740183
00000000: 7cb4 333d c77d ed3d ff56 f23e dc74 da3e
00000010: 8afb 0f3c dc53 91bc

features.2.banch2.6.running_mean f4 [6]
-0.018576765 0.063278705 0.0016852373 0.046742532 0.0779357 0.06327919
00000000: 4d2e 98bc 4498 813d 2ee3 dc3a 1975 3f3d
00000010: c19c 9f3d 8598 813d

features.2.banch2.6.running_var f4 [6]
0.735927 0.42464545 1.5981699 1.4364076 0.26245296 0.55529594
00000000: b665 3c3f 216b d93e d590 cc3f 34dc b73f
00000010: 3c60 863e e027 0e3f

features.3.banch2.0.weight f4 [6, 6, 1, 1]
-0.27606738 0.24731438 0.49894446 0.15614977 0.10541696 -0.25055262 0.6304758 -0.07913512
-0.012885215 -0.20221402 -0.009881522 -0.2333539 -0.04298005 -0.94579524 -0.05201484 0.07279919
-0.21479388 -0.14036849 -0.25607374 -0.086339325 -0.31817344 -0.3914944 -0.22262825 -0.053069215
0.2683522 -0.32311055 0.5522417 0.12796994 -0.11484843 0.3177163 0.26018894 0.07895043
0.5442689 -0.05754736 0.054927316 0.16512007
00000000: b458 8dbe fb3f 7d3e a675 ff3e bae5 1f3e
00000010: d9e4 d73d 6f48 80be dd66 213f 9811 a2bd
00000020: 821c 53bc 3111 4fbe 1be6 21bc 53f4 6ebe
00000030: d90b 30bd a31f 72bf 830d 55bd be17 953d
00000040: edf2 5bbe c2bc 0fbe 191c 83be acd2 b0bd
00000050: a1e7 a2be f471 c8be a9f8 63be 1b5f 59bd
00000060: 7665 893e bf6e a5be b65f 0d3f 8d0a 033e
00000070: a735 ebbd b6ab a23e 7c37 853e c3b0 a13d
00000080: 3555 0b3f c8b6 6bbd 77fb 603d 3c15 293e

features.3.banch2.1.weight f4 [6]
1.1795595 1.0536278 1.1043538 1.1876421 1.1480818 0.9871576
00000000: cefb 963f 47dd 863f 775b 8d3f a804 983f
00000010: 58f4 923f 5cb6 7c3f

features.3.banch2.1.bias f4 [6]
-0.047591705 0.23769934 0.34992698 -0.02243257 0.14833432 0.24137321
00000000: 85ef 42bd 7567 733e a129 b33e 82c4 b7bc
00000010: f4e4 173e 8a2a 773e

features.3.banch2.1.running_mean f4 [6]
0.25215632 0.2759286 -0.71385145 -0.61858964 0.45920542 0.6235269
00000000: a21a 813e 8346 8d3e f8be 36bf e45b 1ebf
00000010: f91c eb3e 759f 1f3f

features.3.banch2.1.running_var f4 [6]
0.22974905 0.345549 0.3733647 0.19769745 0.47680086 0.33065543
00000000: 5643 6b3e cceb b03e a829 bf3e 3371 4a3e
00000010: 3e1f f43e ab4b a93e

features.3.banch2.3.weight f4 [6, 1, 3, 3]
-0.13105373 -0.52047825 -0.06910517 -0.5088887 -0.47759795 -0.2045074 0.029386383 -0.13605182
0.4161946 -0.20269096 0.31356987 0.5201203 -0.21917033 -0.28472507 0.09578805 0.027360326
-0.19908957 0.015209932 -0.36047155 -0.020530276 -0.16264684 -0.4336777 0.2319214 0.25902647
0.041580856 0.20958069 0.64330554 0.47535414 0.2087865 -0.25897616 -0.1753845 0.15115017
-0.026328947 -0.16776437 0.27179667 0.3951085 0.23534232 0.23918132 -0.55502176 -0.13541418
0.0061632902 -0.119008705 0.34231272 0.055703238 -0.068080075 0.40952793 -0.06788919 -0.49752033
0.059897155 0.050455328 -0.017412405 0.50007194 0.3785301 -0.14783294
00000000: f332 06be 103e 05bf 0387 8dbd 8846 02bf
00000010: b887 f4be 636a 51be b6bb f03c 2b51 0bbe
00000020: 7517 d53e 388e 4fbe 3b8c a03e 9b26 053f
00000030: 306e 60be 7cc7 91be 862c c43d c322 e03c
00000040: 23de 4bbe 1433 793c ba8f b8be 1c2f a8bc
00000050: e58c 26be 010b debe ce7c 6d3e 1e9f 843e
00000060: b050 2a3d 529c 563e acaf 243f 9e61 f33e
00000070: 21cc 553e 8698 84be ff97 33be 1cc7 1a3e
00000080: ceaf d7bc 6cca 2bbe ef28 8b3e a94b ca3e
00000090: 94fd 703e f3eb 743e e815 0ebf 04aa 0abe
000000a0: 6df5 c93b d6ba f3bd 9d43 af3e 1429 643d
000000b0: 916d 8bbd a5ad d13e 7d09 8bbd fcba febe
000000c0: b856 753d 3faa 4e3d 76a4 8ebc b704 003f
000000d0: b3ce c13e 8561 17be

features.3.banch2.4.weight f4 [6]
1.0252651 1.3805783 0.9318214 0.8863127 0.78527856 0.9970905
00000000: e33b 833f cab6 b03f d98b 6e3f 64e5 623f
00000010: 0408 493f 5341 7f3f

features.3.banch2.4.bias f4 [6]
0.14048849 -0.16048884 -0.020790042 -0.01918566 -0.028016195 0.058007248
00000000: 37dc 0f3e 3057 24be e14f aabc 3f2b 9dbc
00000010: 3882 e5bc 0299 6d3d

features.3.banch2.4.running_mean f4 [6]
-0.581732 -0.012949897 0.17720734 0.3725828 0.05174609 0.36746135
00000000: 63ec 14bf ce2b 54bc d775 353e 2cc3 be3e
00000010: b5f3 533d e523 bc3e

features.3.banch2.4.running_var f4 [6]
1.3283709 0.42340535 0.49987304 0.13961843 0.44054252 0.7932732
00000000: 0f08 aa3f 96c8 d83e 5cef ff3e 22f8 0e3e
00000010: ca8e e13e f413 4b3f

features.3.banch2.5.weight f4 [6, 6, 1, 1]
-0.20511247 0.28349704 0.26628834 0.46099415 -0.46370003 -0.084364355 -0.6416439 0.21860711
0.29493856 0.30591506 0.10985691 0.45426604 0.32555634 -0.7361623 -0.20396316 -0.2206788
-0.06783283 -0.19934264 0.08943546 0.71845704 -0.14838596 0.2639164 0.18141767 -0.076413184
0.017095465 0.6983069 0.034922093 -0.27934784 -0.12217512 -0.15713356 -0.036389474 0.008912328
0.5375812 0.049557295 -0.19206448 -0.7720627
00000000: 0109 52be 8626 913e f256 883e 6d07 ec3e
00000010: 176a edbe 38c7 acbd c642 24bf 8bda 5f3e
00000020: 3002 973e e6a0 9c3e a9fc e03d 8f95 e83e
00000030: 52af a63e 2275 3cbf b8db 50be a0f9 61be
00000040: f0eb 8abd 7a20 4cbe f029 b73d cdec 373f
00000050: 7df2 17be 0d20 873e 8ec5 393e 847e 9cbd
00000060: ca0b 8c3c 3ec4 323f 780a 0f3d ae06 8fbe
00000070: f336 fabd 9fe7 20be 210d 15bd 0305 123c
00000080: ec9e 093f 97fc 4a3d 8dac 44be e7a5 45bf

features.3.banch2.6.weight f4 [6]
1.0575745 0.6332326 1.098329 0.87025374 0.9924415 0.74011177
00000000: 9a5e 873f 881b 223f 0b96 8c3f f3c8 5e3f
00000010: a510 7e3f f777 3d3f

features.3.banch2.6.bias f4 [6]
0.21230665 0.48569015 0.009198883 0.048815537 -0.19996162 0.5854712
00000000: ea66 593e 61ac f83e e9b6 163c cdf2 473d
00000010: bdc2 4cbe 71e1 153f

features.3.banch2.6.running_mean f4 [6]
-0.081253886 -0.11730072 0.16510107 -0.11460189 -0.10868581 -0.05657118
00000000: 7068 a6bd 5c3b f0bd 4110 293e 65b4 eabd
00000010: aa96 debd 2eb7 67bd

features.3.banch2.6.running_var f4 [6]
0.9222169 0.9755365 1.251804 1.0240401 1.1072569 1.2664742
00000000: 6816 6c3f c3bc 793f 1d3b a03f bf13 833f
00000010: 98ba 8d3f d41b a23f

features.4.banch1.0.weight f4 [12, 1, 3, 3]
0.1544587 -0.18031307 -0.22342877 -0.13059936 0.14882277 -0.57789993 0.355374 0.07661589
-0.38126782 -0.4792082 0.41474128 -0.21979657 0.40453225 -0.54448086 -0.10685732 0.636541
0.10816104 -0.047191154 0.18212141 -0.097975925 -0.11083499 -0.43106946 -0.18616 0.23594849
-0.47363976 -0.56451535 -0.36077625 0.26639035 0.476405 0.055918448 0.29950663 0.44793862
0.29152548 0.17291327 -0.23515563 -0.19428322 0.47726226 0.069833726 -0.20419914 0.21667491
-0.5095475 0.17396241 -0.5628263 -0.6508745 -0.33071885 0.18784155 0.5003132 -0.034815647
-0.52247685 -0.18858686 0.009757087 -0.32002485 -0.41439447 -0.013641142 -0.18822114 0.41173333
-0.041971434 -0.0016343899 0.027441189 0.23047738 0.012823232 -0.020927912 -0.7407309 -0.4492863
-0.079030745 0.81419384 0.084045716 -0.14845343 0.16180724 0.114926144 -0.4470847 -0.09062719
0.42762277 -0.09490119 0.3463918 -0.18648566 0.39903468 -0.47815955 0.39728892 0.53509754
-0.275959 0.3441288 -0.1993491 -0.25925782 -0.24076895 0.38123608 0.25900817 0.12771313
0.31382027 -0.47889075 0.52985245 -0.20760304 -0.47857103 -0.71663666 -0.5773934 0.37138397
-0.14242643 -0.07326388 0.28990853 -0.023248127 -0.22537595 0.2764227 0.5915298 -0.124604665
-0.16861635 0.72340107 -0.018912707 0.0080681965
00000000: 6c2a 1e3e fda3 38be 83ca 64be d7bb 05be
00000010: ff64 183e 40f1 13bf 95f3 b53e cbe8 9c3d
00000020: 8935 c3be c75a f5be f858 d43e 5a12 61be
00000030: da1e cf3e 1963 0bbf 03d8 dabd 5af4 223f
00000040: 8983 dd3d 834b 41bd 097e 3a3e 9aa7 c8bd
00000050: 75fd e2bd 23b5 dcbe baa0 3ebe 7b9c 713e
00000060: e980 f2be 1484 10bf aab7 b8be 5164 883e
00000070: 5beb f33e be0a 653d ef58 993e 3658 e53e
00000080: d442 953e 2d10 313e a3cc 70be 2ef2 46be
00000090: b85b f43e fc04 8f3d 9419 51be 07e0 5d3e
000000a0: b471 02bf 3423 323e 6215 10bf b69f 26bf
000000b0: fb53 a9be 8959 403e 8714 003f da9a 0ebd
000000c0: 0bc1 05bf ea1c 41be 30dc 1f3c 4cda a3be
000000d0: 832b d4be 197f 5fbc 0bbd 40be b6ce d23e
000000e0: 3dea 2bbd 0639 d6ba 58cc e03c 4302 6c3e
000000f0: 8918 523c 0371 abbc 8aa0 3dbf db08 e6be
00000100: dfda a1bd 026f 503f 2920 ac3d 2d04 18be
00000110: ccb0 253e 665e eb3d 49e8 e4be c09a b9bd
00000120: 5ff1 da3e 8e5b c2bd 445a b13e 19f6 3ebe
00000130: 464e cc3e 54d1 f4be 7469 cb3e 27fc 083f
00000140: 804a 8dbe a631 b03e 2c22 4cbe 71bd 84be
00000150: 238c 76be 6031 c33e b89c 843e 3bc7 023e
00000160: 0dad a03e 2b31 f5be 69a4 073f e495 54be
00000170: 4307 f5be 8075 37bf 0ed0 13bf 0a26 be3e
00000180: 3cd8 11be 600b 96bd e46e 943e db72 bebc
00000190: f4c8 66be 4787 8d3e 7f6e 173f bb30 ffbd
000001a0: c4a9 2cbe d030 393f d2ee 9abc 7830 043c

features.4.banch1.1.weight f4 [12]
1.0341798 0.98863506 0.84636974 1.0751699 1.168755 1.0196282 0.7574719 0.62293017
1.7955027 0.9720846 1.0092802 0.9442142
00000000: 0160 843f 3017 7d3f b0ab 583f 2b9f 893f
00000010: c499 953f 2d83 823f aee9 413f 5a78 1f3f
00000020: 08d3 e53f 89da 783f 1830 813f 06b8 713f

features.4.banch1.1.bias f4 [12]
-0.18519305 -0.0879688 0.064295806 0.099821314 -0.16378415 -0.010006645 -0.08493889 -0.07055908
-0.054492872 0.050957654 0.0116890315 0.04753699
00000000: 3fa3 3dbe fc28 b4bd 85ad 833d 1e6f cc3d
00000010: 08b7 27be e9f2 23bc 71f4 adbd 4781 90bd
00000020: eb33 5fbd f9b8 503d 5a83 3f3c 26b6 423d

features.4.banch1.1.running_mean f4 [12]
-0.15684344 0.06407785 -0.70253795 0.7018691 -0.6430801 -0.31138 -0.09083633 -0.06232983
0.72153103 0.099562556 -0.72597015 0.45568562
00000000: 919b 20be 3f3b 833d 87d9 33bf b1ad 333f
00000010: e6a0 24bf 336d 9fbe 6608 babd 904d 7fbd
00000020: 42b6 383f 74e7 cb3d 2ed9 39bf a04f e93e

features.4.banch1.1.running_var f4 [12]
0.37167856 0.44943008 0.66031384 0.5505734 1.3118424 0.29505435 0.16216503 0.4969719
1.148654 0.19922975 0.96783495 0.5538835
00000000: a74c be3e b31b e63e 540a 293f 61f2 0c3f
00000010: 74ea a73f 5d11 973e 970e 263e 1a73 fe3e
00000020: 1807 933f e202 4c3e 08c4 773f 4fcb 0d3f

features.4.banch1.2.weight f4 [12, 12, 1, 1]
0.046207026 0.5863194 -0.4151494 0.28581488 -0.7540868 -0.017098842 0.114408225 0.15733422
-0.4854717 -0.16771156 -0.3414386 0.4651015 -0.23243268 -0.11829725 -0.13228826 0.56996644
-0.0066198097 -0.67850673 0.23510756 0.004926108 -0.093526736 -0.50379217 -0.17261122 0.07869971
-0.27908158 -0.23127279 -0.1884342 0.09469514 -0.37815437 -0.35408944 0.2552915 -0.18701442
-0.14283682 0.61681396 -0.22999667 0.030417506 -0.12218791 0.14807343 -0.26904637 -0.6900715
-0.31850123 0.24894078 0.09353129 0.21025887 0.0096404515 -0.33225924 -0.0971409 0.5984294
-0.5122346 -0.19031627 -0.029450823 -0.026736172 0.39118168 0.13353242 -0.26359075 -0.17879754
0.68504953 0.1969363 -0.04703282 0.10345085 -0.1724408 0.4101919 0.043991614 -0.23851888
-0.24732977 0.12149929 0.021635462 0.07141581 0.4999391 -0.21056369 -0.8765308 0.4025556
-0.60083276 -0.15475374 -0.42706025 0.13353072 -0.10625988 -0.15402536 -0.3320661 -0.12909663
0.09603211 0.24558014 0.011047817 0.093550876 0.15184286 0.02618253 0.1167917 0.19583286
0.3333876 0.06640438 -0.23092298 -0.33528224 0.83431315 -0.07799079 0.048841678 0.14207745
0.6143438 0.32937986 -0.027237443 0.20418295 0.012618573 0.33956012 -0.36391577 -0.29510596
0.5679484 -0.17380348 0.22287115 0.20118196 -0.24716155 0.3037911 -0.2709559 -0.106298454
-0.15562741 -0.6049547 -0.13878855 -0.03641441 0.42500108 0.077764854 -0.2775602 -0.07494401
-0.23292576 -0.090069495 0.19347996 -0.42869237 0.019292729 -0.18262938 -0.20935376 -0.42129412
-0.052687153 0.19432151 0.39979953 -0.4215029 0.012955151 -0.10068541 -0.4198731 -0.54991823
0.09467168 0.2815187 0.38304707 -0.1422273 0.33120334 -0.011961212 -0.1367935 -0.14587565
00000000: 9443 3d3d 0719 163f 768e d4be 5456 923e
00000010: d50b 41bf df12 8cbc dc4e ea3d 391c 213e
00000020: bf8f f8be 94bc 2bbe 0ad1 aebe c921 ee3e
00000030: d502 6ebe d445 f2bd 9376 07be 52e9 113f
00000040: fdea d8bb 9eb2 2dbf 09c0 703e 306b a13b
00000050: f28a bfbd 86f8 00bf ffc0 30be 502d a13d
00000060: c8e3 8ebe c6d2 6cbe e5f4 40be 87ef c13d
00000070: 739d c1be 364b b5be 91b5 823e b580 3fbe
00000080: d143 12be 85e7 1d3f 3f84 6bbe 222e f93c
00000090: a83d fabd 90a0 173e 72c0 89be 87a8 30bf
000000a0: 9812 a3be 55ea 7e3e 558d bf3d 1a4e 573e
000000b0: fcf2 1d3c e21d aabe cff1 c6bd ab32 193f
000000c0: cf21 03bf 45e2 42be da42 f1bc d105 dbbc
000000d0: f748 c83e b9bc 083e 5ef5 86be b416 37be
000000e0: 685f 2f3f aba9 493e 7ca5 40bd 0ade d33d
000000f0: 5294 30be ac04 d23e 8d30 343d 4b3e 74be
00000100: 0444 7dbe 9fd4 f83d da3c b13c 7442 923d
00000110: 05f8 ff3e 029e 57be 5364 60bf c51b ce3e
00000120: 2dd0 19bf c477 1ebe a4a7 dabe 47bc 083e
00000130: c89e d9bd d3b8 1dbe 9104 aabe e831 04be
00000140: 7cac c43d 5c79 7b3e e701 353c 9a97 bf3d
00000150: b27c 1b3e bf7c d63c 7d30 ef3d 6988 483e
00000160: c8b1 aa3e 05ff 873d 1377 6cbe 1daa abbe
00000170: 8c95 553f a3b9 9fbd 360e 483d c07c 113e
00000180: a345 1d3f 7aa4 a83e 0f21 dfbc 5615 513e
00000190: 22be 4e3c d3da ad3e 2b53 babe 2118 97be
000001a0: 1165 113f 8af9 31be 5638 643e a502 4e3e
000001b0: eb17 7dbe 828a 9b3e bbba 8abe 01b3 d9bd
000001c0: cb5c 1fbe 50de 1abf 961e 0ebe 4727 15bd
000001d0: be99 d93e 2e43 9f3d 5f1c 8ebe 3f7c 99bd
000001e0: 1784 6ebe 5b76 b8bd 9c1f 463e 917d dbbe
000001f0: c90b 9e3c 3203 3bbe d560 56be ddb3 d7be
00000200: 7cce 57bd 38fc 463e 86b2 cc3e 3acf d7be
00000210: d741 543c 2734 cebd 9bf9 d6be 71c7 0cbf
00000220: 3ae3 c13d 3823 903e bf1e c43e 09a4 11be
00000230: 7c93 a93e f6f8 43bc 9813 0cbe 6d60 15be

features.4.banch1.3.weight f4 [12]
1.9749848 1.3996284 1.1922657 0.94773227 1.4151285 1.34529 0.928198 1.3722197
1.1329839 0.9394509 1.1221219 0.64992636
00000000: 4dcc fc3f 0627 b33f 2a9c 983f 959e 723f
00000010: ee22 b53f 7632 ac3f 629e 6d3f e5a4 af3f
00000020: 9e05 913f db7f 703f b1a1 8f3f 9361 263f

features.4.banch1.3.bias f4 [12]
1.7432854 0.52915066 0.06720042 0.15990357 0.4612783 -0.36914197 0.0852755 0.37105203
0.26425815 0.10075829 0.28949136 -0.3321636
00000000: fa23 df3f 6b76 073f 60a0 893d c3bd 233e
00000010: ab2c ec3e 2d00 bdbe eca4 ae3d 88fa bd3e
00000020: d84c 873e 5d5a ce3d 3638 943e 5911 aabe

features.4.banch1.3.running_mean f4 [12]
0.088471696 0.06768382 0.16454107 -0.03365164 0.050807673 -0.02001187 0.18098268 -0.0570659
-0.10446991 0.011216202 0.06301613 -0.1431225
00000000: a630 b53d d19d 8a3d 747d 283e 4dd6 09bd
00000010: b51b 503d efef a3bc 8653 393e efbd 69bd
00000020: 52f4 d5bd 29c4 373c 9a0e 813d b48e 12be

features.4.banch1.3.running_var f4 [12]
4.647417 1.2796072 1.3185995 1.5552199 2.7148242 2.6888602 1.1112146 2.9511228
1.9931158 1.6621124 1.0931122 0.8185944
00000000: a4b7 9440 2bca a33f dec7 a83f 7211 c73f
00000010: aebf 2d40 4916 2c40 483c 8e3f 32df 3c40
00000020: 6b1e ff3f 19c0 d43f 1aeb 8b3f 678f 513f

features.4.banch2.0.weight f4 [12, 12, 1, 1]
0.08827305 -0.029142043 0.19502866 0.18049562 0.52677125 -0.06064735 0.064284146 -0.4117465
-0.11018588 -0.18658464 0.13383472 -0.04327281 0.28133872 -0.26568237 -0.25055596 0.33567274
-0.09324419 -0.4556767 0.008853421 0.28370544 -0.21860215 -0.11631838 -0.17713204 -0.095304586
-0.34779906 0.32705158 -0.13842127 0.10028301 0.11738262 0.07869284 -0.10639413 0.07427797
0.39093962 -0.05413437 -0.5857318 -0.010474339 -0.16195178 -0.19406424 0.17759989 0.0048553366
0.17156915 0.18536927 0.24996889 -0.08802594 -0.9470701 -0.18221901 0.09168825 0.20416297
0.2589518 0.0036020374 -0.09222252 -0.068754375 0.117813215 0.1286277 0.09431367 0.06063786
-0.72593474 -0.21141054 -0.29449624 -0.57339025 0.18467815 -0.20159417 -0.36886492 -0.026019793
-0.2427193 0.32870448 0.050732125 -0.1568993 0.11280646 -0.84187275 -0.45763826 -0.0745506
-0.5876299 -0.026449937 -0.27556622 -0.27011257 -0.023456229 0.0021420135 -0.5311853 -0.18106824
0.30776057 -0.12148695 0.31153458 -0.22608452 -0.070085526 0.3345477 -0.5634508 0.15321071
-0.19576629 -0.10214225 -0.046694905 -0.25038543 0.07241659 0.1417601 0.09135667 0.41453993
0.06442049 0.24264523 0.2803441 -0.073686436 0.24424288 0.051621825 -0.20085005 0.17007191
-0.38719627 -0.10394365 0.5001791 0.33406332 0.017047292 0.3564559 0.25837535 -0.34912258
-0.33795217 -0.5638156 0.17951424 0.25061098 -0.7535437 -0.21112981 0.34894675 0.15451594
-0.29909566 0.11059894 0.20611772 -0.31856322 0.2862155 0.5022559 -0.21603543 -0.1728365
0.026128678 -0.25910866 -0.123561576 0.36241388 0.094913065 0.45737284 0.2870944 0.07567746
-0.40238065 -0.25414813 -0.024494471 0.13845502 0.054632187 0.14062536 -0.17810841 0.06758752
00000000: 80c8 b43d 4bbb eebc 98b5 473e d8d3 383e
00000010: 7bda 063f 5b69 78bd 68a7 833d 70d0 d2be
00000020: 22a9 e1bd 0b10 3fbe f80b 093e d43e 31bd
00000030: a10b 903e 8507 88be df48 80be 4cdd ab3e
00000040: cff6 bebd 754e e9be f00d 113c d741 913e
00000050: 3ed9 5fbe 5538 eebd 1a62 35be 0d2f c3bd
00000060: b812 b2be 4e73 a73e 4ebe 0dbe 2e61 cd3d
00000070: 4d66 f03d b629 a13d 2ae5 d9bd 0c1f 983d
00000080: 3d29 c83e 00bc 5dbd 85f2 15bf 909c 2bbc
00000090: b0d6 25be c7b8 46be bfdc 353e 8419 9f3b
000000a0: d3af 2f3e 71d1 3d3e d8f7 7f3e f246 b4bd
000000b0: 3073 72bf 9f97 3abe 0dc7 bb3d 1910 513e
000000c0: 5595 843e 2910 6c3b 29df bcbd 18cf 8cbd
000000d0: 0e48 f13d fbb6 033e 8727 c13d 685f 783d
000000e0: dcd6 39bf 017c 58be 36c8 96be b4c9 12bf
000000f0: 451c 3d3e b46e 4ebe dddb bcbe 7627 d5bc
00000100: 688b 78be f44b a83e 7dcc 4f3d 36aa 20be
00000110: 1307 e73d f984 57bf 904f eabe fcad 98bd
00000120: ea6e 16bf 8aad d8bc 0417 8dbe 324c 8abe
00000130: 4727 c0bc 0661 0c3b c3fb 07bf f469 39be
00000140: cb92 9d3e 26ce f8bd 7681 9f3e b382 67be
00000150: 0089 8fbd d649 ab3e 503e 10bf 45e3 1c3e
00000160: f576 48be f52f d1bd 2843 3fbd 8532 80be
00000170: 264f 943d 8f29 113e 3519 bb3d 943e d43e
00000180: e4ee 833d fe77 783e 4389 8f3e eae8 96bd
00000190: ce1a 7a3e 6871 533d a3ab 4dbe 5527 2e3e
000001a0: 973e c6be 69e0 d4bd bd0b 003f 590a ab3e
000001b0: c3a6 8b3c 6381 b63e c649 843e 32c0 b2be
000001c0: 1108 adbe 3856 10bf 95d2 373e 1550 803e
000001d0: 3de8 40bf 6a32 58be 26a9 b23e 6d39 1e3e
000001e0: 1123 99be b281 e23d 8610 533e b81a a3be
000001f0: d78a 923e d893 003f 6438 5dbe 0dfc 30be
00000200: cf0b d63c e4a9 84be da0d fdbd 508e b93e
00000210: c861 c23d c62c ea3e 0afe 923e c9fc 9a3d
00000220: d604 cebe b41f 82be a1a8 c8bc 27c7 0d3e
00000230: 00c6 5f3d 1800 103e 0d62 36be 536b 8a3d

features.4.banch2.1.weight f4 [12]
1.1480489 0.944651 1.3123983 0.5153732 0.59402174 0.8120815 1.6360394 1.0136031
1.7314368 0.88811094 1.3044513 1.4970117
00000000: 44f3 923f a6d4 713f abfc a73f 7fef 033f
00000010: cf11 183f 93e4 4f3f bd69 d13f bfbd 813f
00000020: b99f dd3f 3d5b 633f 43f8 a63f 149e bf3f

features.4.banch2.1.bias f4 [12]
-0.23507969 0.25998616 0.1073566 0.62287194 0.54116315 0.3570355 0.029533805 0.13871479
-0.029881872 0.41855413 -0.110404275 0.04448608
00000000: bbb8 70be e81c 853e c7dd db3d 8974 1f3f
00000010: ab89 0a3f 5bcd b63e e1f0 f13c 400b 0e3e
00000020: d4ca f4bc ba4c d63e a31b e2bd 0937 363d

features.4.banch2.1.running_mean f4 [12]
0.30848917 -0.5722836 0.06695013 -0.4785564 -1.1058224 -0.816128 -0.36108324 0.17203973
0.6084647 -0.5626023 0.2606348 0.07575258
00000000: 4bf2 9d3e 2e81 12bf 261d 893d 5805 f5be
00000010: 978b 8dbf c4ed 50bf e7df b8be 2f2b 303e
00000020: 58c4 1b3f b406 10bf ed71 853e 2b24 9b3d

features.4.banch2.1.running_var f4 [12]
0.4681457 0.39727488 0.6606522 1.2722754 0.9809311 1.4491099 0.51474464 0.31561857
0.993619 1.3546834 0.44181952 0.52265394
00000000: cbb0 ef3e 9d67 cb3e 8120 293f ecd9 a23f
00000010: 4d1e 7b3f 6f7c b93f 4ec6 033f c298 a13e
00000020: d15d 7e3f 4466 ad3f 2b36 e23e a6cc 053f

features.4.banch2.3.weight f4 [12, 1, 3, 3]
-0.022399623 -0.50973725 -0.27024564 -0.05937603 -0.442901 0.46019536 0.3993628 0.23733158
-0.21918349 0.1715979 0.18721619 0.2738009 -0.22652481 -0.29931873 0.3996373 -0.5529184
0.29873496 0.16100125 0.20431355 0.11698694 0.43943033 -0.04147848 0.4242709 -0.12205083
-0.013375214 0.3045819 -0.014404876 0.6294361 0.06721049 0.08585034 0.0077751195 -0.15180546
-0.18717083 0.1977749 -0.19046773 -0.51005423 -0.5635817 0.06908747 0.13995206 -0.24303763
0.07763382 0.41705075 -0.38407034 0.03237844 0.36177593 -0.20516078 -0.17595455 -0.47498468
-0.11334901 -0.048392713 -0.30855468 0.4172791 0.39933267 -0.3613831 -0.19276057 -0.36125723
-0.36364737 -0.33217257 -0.27342534 -0.4108983 -0.22262591 -0.1013605 -0.036651 0.30431095
0.06270668 0.2825987 0.13925031 0.23837069 -0.24517818 0.41231275 -0.04578445 -0.010706059
-0.34965515 0.21464457 -0.046038527 -0.3432013 0.0020048085 -0.40867484 -0.47776705 0.6612015
0.38734534 -0.32524726 0.17170995 0.4247877 0.13989562 0.12070355 -0.23614518 -0.040182747
0.4352105 -0.61448324 0.069698386 0.65447795 0.3618759 0.06507881 0.28616998 -0.013547331
0.084169105 -0.2660958 0.14839941 -0.07193831 0.2746228 -0.099698536 0.34953716 -0.12096838
-0.13449028 0.6511513 0.055663295 0.20100369
00000000: 6a7f b7bc 247e 02bf a35d 8abe 4834 73bd
00000010: ebc3 e2be ba9e eb3e 4879 cc3e 0d07 733e
00000020: a371 60be 5cb7 2f3e 9ab5 3f3e a22f 8c3e
00000030: 1ff6 67be 4e40 99be 439d cc3e 0f8c 0dbf
00000040: caf3 983e 83dd 243e 9237 513e d996 ef3d
00000050: 03fd e03e 57e5 29bd 093a d93e c9f5 f9bd
00000060: b723 5bbc 29f2 9b3e 6e02 6cbc b922 213f
00000070: a7a5 893d 4ed2 af3d 6ec6 fe3b e472 1bbe
00000080: b6a9 3fbe 8185 4a3e f909 43be ea92 02bf
00000090: e446 10bf bb7d 8d3d 984f 0f3e dbde 78be
000000a0: 7bfe 9e3d ad87 d53e dea4 c4be 419f 043d
000000b0: b23a b93e ab15 52be 6e2d 34be 3131 f3be
000000c0: 8723 e8bd 7037 46bd e1fa 9dbe 9ba5 d53e
000000d0: 5575 cc3e 3507 b9be 0763 45be b5f6 b8be
000000e0: fd2f babe 8612 aabe 68fe 8bbe 4361 d2be
000000f0: 0cf8 63be 1896 cfbd 5c1f 16bd a5ce 9b3e
00000100: 5c6c 803d c7b0 903e a297 0e3e 7217 743e
00000110: fd0f 7bbe a81a d33e 7a88 3bbd 7768 2fbc
00000120: 0006 b3be c9cb 5b3e e592 3cbd 15b8 afbe
00000130: 1b63 033b d43d d1be e29d f4be 8044 293f
00000140: 2152 c63e cf86 a6be bcd4 2f3e c67d d93e
00000150: cc40 0f3e 6c33 f73d 0bd0 71be aa96 24bd
00000160: e9d3 de3e c64e 1dbf 07be 8e3d de8b 273f
00000170: cc47 b93e 0a48 853d df84 923e a0f5 5dbc
00000180: da60 ac3d b53d 88be 04f6 173e 6554 93bd
00000190: 5c9b 8c3e bf2e ccbd 89f6 b23e 45be f7bd
000001a0: d2b7 09be dab1 263f 32ff 633d e9d3 4d3e

features.4.banch2.4.weight f4 [12]
0.98754215 0.9920791 0.7185991 1.0656804 1.5349042 1.1317217 0.74848217 0.4781576
1.278069 1.213305 0.9207152 0.6059262
00000000: 90cf 7c3f e5f8 7d3f 1cf6 373f 3768 883f
00000010: be77 c43f 42dc 903f 879c 3f3f 13d1 f43e
00000020: c497 a33f 944d 9b3f feb3 6b3f fb1d 1b3f

features.4.banch2.4.bias f4 [12]
-0.03935424 -0.02267238 -0.03984664 0.066598974 -0.15385059 -0.0237311 0.07908737 -0.081926845
0.0041370266 -0.06631266 0.013108062 0.02074774
00000000: e931 21bd 6dbb b9bc 3b36 23bd 0b65 883d
00000010: 028b 1dbe b967 c2bc 8ff8 a13d 43c9 a7bd
00000020: e58f 873b efce 87bd 32c3 563c 2af7 a93c

features.4.banch2.4.running_mean f4 [12]
-0.06613765 0.13602534 0.60298 -0.045791384 -0.0688743 -0.38431188 -1.1584413 0.36921224
-0.102331586 0.16493478 0.46926323 0.4798834
00000000: 2d73 87bd 3a4a 0b3e e65c 1a3f bf8f 3bbd
00000010: f80d 8dbd 87c4 c4be ce47 94bf 6309 bd3e
00000020: 3993 d1bd aae4 283e 4543 f03e 47b3 f53e

features.4.banch2.4.running_var f4 [12]
0.27842614 0.56221205 0.38006622 0.29154602 0.66814524 0.3257917 0.8566997 0.30880943
1.3899475 0.31520787 0.35337698 0.66022354
00000000: df8d 8e3e 21ed 0f3f 0a98 c23e 8545 953e
00000010: 910b 2b3f 2bce a63e ac50 5b3f 451c 9e3e
00000020: cde9 b13f ed62 a13e d4ed b43e 6904 293f

features.4.banch2.5.weight f4 [12, 12, 1, 1]
0.14319533 -0.25166875 0.32034102 0.33824447 -0.5233776 0.24825536 0.08185482 0.06366787
-0.24364257 -0.63825864 -0.31718102 0.09609735 -0.31238118 0.28035948 -0.19331376 0.30883417
-0.20299228 -0.018291282 0.0400402 -0.09277692 -0.5197387 0.35365143 -0.25606585 0.23108314
-0.03572165 0.03498042 -0.16060728 -0.05248041 -0.091867656 -0.54286814 -0.17341234 -0.16091935
0.36338615 0.22878346 0.26473218 0.12498048 0.15123633 -0.59557295 0.44991273 -0.072034545
-0.45653546 -0.25397274 0.046781432 0.04995537 0.049110174 -0.5393668 0.08207787 -0.21495134
0.4405333 0.17011133 0.11034747 0.24717331 -0.2099658 -0.05759619 0.4716258 0.2744779
-0.57456356 -0.015103901 -0.13987157 -0.14680831 0.24915591 -0.18876047 0.30508277 0.13260943
-0.72890073 -0.05249101 -0.23364909 -0.117123716 -0.013640372 -0.039831314 -0.30472848 -0.09774284
-0.09015716 0.03550428 0.1095672 -0.09923574 0.4303736 -0.08412203 0.027510585 0.20860766
0.5330614 0.44017187 0.013182046 0.11618974 -0.30232462 0.35562658 -0.069840215 0.07243884
0.033836342 -0.12580931 0.12396735 0.13685508 -0.27631757 0.28438997 -0.22422051 0.2696775
0.15377276 0.009979561 -0.2081733 0.014788995 0.4405719 -0.56470895 -0.2781535 0.039557602
0.12071053 0.21657923 -0.073523186 -0.19026744 -0.31466505 -0.40339366 -0.035603248 0.5045783
-0.6156259 0.28557524 -0.06915325 0.13039498 -0.19733857 0.0562675 0.31358168 0.21118341
-0.080657125 -0.17573428 -0.10034411 -0.53599197 0.3526171 0.13623732 0.14133373 0.14401682
0.2656091 0.2800601 -0.07337441 0.0019194344 -0.48751482 0.3121832 -0.12773854 0.04023188
0.17360917 -0.00033427632 0.07694744 0.004975534 0.02944311 -0.24221733 0.5248088 0.30333558
00000000: cca1 123e bada 80be bd03 a43e 612e ad3e
00000010: 13fc 05bf a736 7e3e 80a3 a73d 4d64 823d
00000020: 707d 79be eb64 23bf 8d65 a2be b0ce c43d
00000030: 6df0 9fbe 478b 8f3e 0bf4 45be 831f 9e3e
00000040: 35dd 4fbe 99d7 95bc 3101 243d d301 bebd
00000050: 980d 05bf cd11 b53e 101b 83be 0fa1 6c3e
00000060: dd50 12bd a147 0f3d 3c76 24be b3f5 56bd
00000070: 1c25 bcbd 68f9 0abf 0193 31be 0bc8 24be
00000080: c00d ba3e 3646 6a3e fa8a 873e c4f5 ff3d
00000090: b2dd 1a3e 7877 18bf f65a e63e d986 93bd
000000a0: 04bf e9be b708 82be e39d 3f3d 019e 4c3d
000000b0: c027 493d f113 0abf 7118 a83d 341c 5cbe
000000c0: 958d e13e aa31 2e3e dbfd e13d 001b 7d3e
000000d0: 4601 57be fce9 6bbd f078 f13e 5e88 8c3e
000000e0: 9916 13bf 5a76 77bc 7e3a 0fbe eb54 16be
000000f0: ba22 7f3e 6d4a 41be cf33 9c3e c4ca 073e
00000100: 3d99 3abf d000 57bd b541 6fbe 8fde efbd
00000110: de7b 5fbc 2926 23bd 5f05 9cbe 662d c8bd
00000120: 51a4 b8bd f06c 113d c564 e03d 1c3c cbbd
00000130: ee59 dc3e 2c48 acbd e15d e13c 3f9d 553e
00000140: b676 083f 355e e13e 82f9 573c e3f4 ed3d
00000150: 4bca 9abe b014 b63e 6308 8fbd d15a 943d
00000160: fa97 0a3d 28d4 00be 98e2 fd3d bd23 0c3e
00000170: 7f79 8dbe 909b 913e 109a 65be 2b13 8a3e
00000180: 9b76 1d3e 5081 233c 622b 55be 8a4d 723c
00000190: a492 e13e c490 10bf 236a 8ebe 2707 223d
000001a0: 1537 f73d f2c6 5d3e 5393 96bd 78d5 42be
000001b0: c71b a1be 9d89 cebe b6d4 11bd 0b2c 013f
000001c0: a999 1dbf eb36 923e 38a0 8dbd 4386 053e
000001d0: 1f13 4abe c078 663d c78d a03e 7740 583e
000001e0: 902f a5bd b0f3 33be 3681 cdbd c536 09bf
000001f0: 3b8a b43e cc81 0b3e cab9 103e 2579 133e
00000200: eafd 873e 0a64 8f3e 5345 96bd 8895 fb3a
00000210: 8b9b f9be 7ad6 9f3e e4cd 02be 2fca 243d
00000220: 9ac6 313e cf41 afb9 9f96 9d3d ce09 a33b
00000230: ad32 f13c d207 78be df59 063f cd4e 9b3e

features.4.banch2.6.weight f4 [12]
1.754947 0.84935725 0.83469564 1.1093012 0.84539276 1.3217375 0.97746515 0.5924961
1.2709405 1.2635328 1.040725 0.99311006
00000000: 1aa2 e03f 7a6f 593f 9dae 553f 95fd 8d3f
00000010: a96b 583f b22e a93f 283b 7a3f d3ad 173f
00000020: 2eae a23f 71bb a13f 7a36 853f 763c 7e3f

features.4.banch2.6.bias f4 [12]
0.3089561 -0.19188046 -0.16825974 -0.013344069 0.37534702 0.05313027 -0.058206685 -0.07345073
-0.09861746 0.2985054 0.18760426 0.033425517
00000000: 7e2f 9e3e 507c 44be 484c 2cbe 15a1 5abc
00000010: 7c2d c03e 209f 593d 226a 6ebd 566d 96bd
00000020: f3f7 c9bd b3d5 983e 551b 403e 32e9 083d

features.4.banch2.6.running_mean f4 [12]
0.12507823 0.053905528 0.022869857 0.09303511 0.03267615 0.08935084 -0.11089921 -0.008075486
-0.094176754 0.12986106 -0.10086288 0.028879043
00000000: 8214 003e 0bcc 5c3d 9159 bb3c 3189 be3d
00000010: 6dd7 053d 93fd b63d 201f e3bd 0b4f 04bc
00000020: bedf c0bd 4cfa 043e 3391 cebd be93 ec3c

features.4.banch2.6.running_var f4 [12]
4.4562078 0.93114024 0.9952559 2.71759 1.14717 2.6808152 2.310049 0.7566716
1.9824402 3.387259 1.8712236 1.0468954
00000000: 4199 8e40 355f 6e3f 17c9 7e3f ffec 2d40
00000010: 77d6 923f 7a92 2b40 d8d7 1340 3bb5 413f
00000020: 9ac0 fd3f dac8 5840 4184 ef3f ab00 863f
