model.pt (torch, 189282 bytes, 282 tensors)

conv1.0.weight f4 [6, 3, 3, 3]
00000000: 0101 2dbe b908 99be 3dfc 52be 1b9e 4abe
00000010: a849 e03d 7fee 153e 40c8 5abe cb9b a13c
00000020: 3ae8 67be eb31 a8be 9c09 afbe e877 36be
00000030: e877 55b9 0ac4 743d ce6f 32be 9917 6fbe
00000040: 0f56 a9be 206e 01be ee65 c6bc 5ca6 753d
00000050: 14d9 83be 90e1 bc3c 861d 08bd 31d9 f13d
00000060: cff9 e43d 8242 073e 2c13 b3bd 8186 7cbc
00000070: 2b23 48bd 4e89 133e 1807 573d e386 133e
00000080: 8767 753e dc07 493d 3de4 3e3c d1fd 943e
00000090: b37a fe3d 4c8d e0bd 07c6 803e 8ebd b83d
000000a0: b93b 203e f326 3e3e a63f 66bd fd08 923d
000000b0: 9035 113c f135 3bbe 049a 0abe d858 c13d
000000c0: ae7e 3d3e 3b18 223e 8b78 3ebd dad8 11be
000000d0: 2f65 69bd eb51 d5bd a0a4 eb3d 441f 813e
000000e0: e036 b33e 301e 5a3e d881 243e ca16 b53e
000000f0: 3fd1 303d ce6b 9b3c 68b2 5f3e 2a2b b93e
00000100: 1239 a13d be0d 8c3e 2324 b43e 22ff 8d3e
00000110: 6599 3f3e 8157 ac3e fb87 dc3d 5b8b 733d
00000120: a2f5 6ebd 8b67 c03c a93e 253e d9ac ee3b
00000130: 09e7 203d 7269 1c3e f987 243d 8f46 0f3e
00000140: 2ca0 43be 583e 943d 531d 903e 1483 803e
00000150: 040c fdbd 50ef 753e b83c 883e 9a23 9b3d
00000160: fc74 273e 31de bc3e f083 fd3d 5f60 c83e
00000170: a33d 903e a7c5 673e 3c79 843d 6147 533e
00000180: 8bf0 5f3b ffa1 6c3e 7902 b83e 41aa 6c3e
00000190: f49e c3ba 8216 0abe ef1c 3e3e 70ef 543e
000001a0: 5c28 d0bc 7c67 70bd e3f8 78bd 02cf ce3b
000001b0: 1b8a 4cbd 4f82 8ebe 3169 48be 2585 f6bc
000001c0: 6b59 d7bc 7411 83be de0b 0fbe 8178 e23d
000001d0: 76c4 973d bf6d a8be 8d84 22be ca77 babe
000001e0: f5dd 0ebe ac54 e53d cab8 8fbe be8a f0bd
000001f0: e75f 5ebe 53e7 cbbd 5de7 2c3b b095 2a3e
00000200: 85fc 23bd cd49 953c ef21 093e 21bd 2f3e
00000210: d292 043e 09f3 05be 28dd 5abe fe7b acbd
00000220: 6fc5 ec3d 1b6c 7d3d 1750 f4bd 5891 8fbd
00000230: b6c7 5f3d 58be c0bd 9add 223c d39d f7bb
00000240: 078d 593e 9c4b 893d 271e ae3d dd89 9f3d
00000250: 2df1 3a3e 2dbf 2a3e ae7a b33e 4017 8e3e
00000260: 1fd6 843e 8d69 92bc 94dc 383e 1a8d 1bbe
00000270: e5d2 a13d b59d 023e baa7 a93d e760 de3b
00000280: ceef b83d 24a5 12be
-0.16894914 -0.29889467 -0.20604034 -0.19786875 0.10951549 0.1464176 -0.21365452 0.019727608
-0.22647181 -0.32850584 -0.3418702 -0.17819178 -0.00020357931 0.05975727 -0.17425463 -0.23348846
-0.3307347 -0.12639666 -0.024218526 0.059973106 -0.25751555 0.023056775 -0.03323128 0.11809004
0.1118046 0.13208964 -0.08743891 -0.015412928 -0.048861664 0.14407846 0.052497 0.14406924
0.23965274 0.04907976 0.011651096 0.29099897 0.12425747 -0.1096445 0.25151083 0.0902053
0.15647782 0.18569545 -0.056213044 0.07130621 0.008862868 -0.18282296 -0.13535315 0.09440774
0.18505356 0.15829556 -0.046501677 -0.14242879 -0.05698126 -0.10416015 0.11506009 0.25219166
0.35002804 0.21300578 0.16065156 0.3536895 0.043168303 0.018972304 0.218454 0.36165744
0.078722134 0.27354234 0.3518382 0.27733713 0.18710859 0.3366051 0.10768124 0.05945907
-0.058339722 0.023486873 0.16137184 0.0072837886 0.039282832 0.15274599 0.040168736 0.1399176
-0.1910407 0.072384536 0.28147373 0.25100005 -0.123558074 0.24017072 0.26608825 0.0757515
0.1635322 0.3688827 0.12378681 0.39136025 0.28172025 0.22633992 0.06468436 0.20632698
0.0034170474 0.23108672 0.35939386 0.23111822 -0.0014924691 -0.13485149 0.18565725 0.20794463
-0.02540987 -0.05869244 -0.060784232 0.0063112983 -0.049936395 -0.27833793 -0.19571377 -0.030092785
-0.026287755 -0.25599253 -0.1396937 0.110581405 0.07410519 -0.3289623 -0.15870877 -0.36419517
-0.13951857 0.111977905 -0.2807067 -0.11745213 -0.21716271 -0.09956231 0.002638302 0.16658664
-0.040035743 0.018223668 0.13391851 0.1716199 0.12946633 -0.13080992 -0.21373427 -0.08422087
0.11561095 0.061870676 -0.119293384 -0.07010144 0.05463382 -0.09411305 0.009940529 -0.007556656
0.21245204 0.067038745 0.08501845 0.07789967 0.18256064 0.1667449 0.35054535 0.27752113
0.2594461 -0.017872596 0.18052894 -0.15190545 0.07901553 0.12755473 0.082839444 0.006786454
0.09030114 -0.14320809

conv1.1.weight f4 [6]
00000000: aea6 2b3f c535 603f b94c 303f 5f1a 463f
00000010: 9d02 903f f8f4 553f
0.6705121 0.87582046 0.6886707 0.7738399 1.1250798 0.8357692

conv1.1.bias f4 [6]
00000000: b1e7 1e3f d243 353e ecd2 093f 8850 2b3f
00000010: c634 8f3e 11b3 133f
0.62072283 0.17701653 0.53837466 0.66919756 0.2796995 0.5769511

conv1.1.running_mean f4 [6]
00000000: 285a 85be da64 023e e434 ce3e 4b3f c63e
00000010: c8d8 56be cd0a 403e
-0.26045346 0.12733784 0.40274727 0.38720164 -0.20981133 0.1875412

conv1.1.running_var f4 [6]
00000000: 1200 073e 8333 173d e75e 993e e81e 8f3e
00000010: 49ca b93d cb1c 983d
0.1318362 0.03691436 0.29955217 0.27953267 0.09071786 0.07427367

features.0.banch1.0.weight f4 [6, 1, 3, 3]
00000000: ee25 e23d ea8d 983e 204c 153e 17d2 c93d
00000010: fd44 663e c4b4 613e 3276 fbbe 2f56 23bf
00000020: de8e 7d3a 0f1d febe 303c d9bd 02ee f3bd
00000030: 2d23 41be f284 89be 1cad 8dbd 64f2 3d3e
00000040: c606 dcbe 2c9a bcbd 70c4 46be 12e4 88bd
00000050: 2a4f 883e 8e2b a1be aa53 a93d 29d1 d53d
00000060: a211 063f 9420 103f 8b27 913c 4e3a 8dbd
00000070: df2e 103e 2d94 243f c326 25bc c042 41bd
00000080: efa6 e43e c172 c4be 6fcb 0abf 5b49 253d
00000090: 4021 e9be 0e28 1ebf 10e7 61be 5f86 8cbd
000000a0: b161 1f3e adb1 1f3e b9a4 723e d8c3 d93e
000000b0: c1cb 523e 3225 e13d 62bf 43bd 4656 913e
000000c0: eb05 de3e edb4 07bc b823 fb3a 0e88 343f
000000d0: dda0 d33d bf39 883d
0.11042391 0.29795772 0.1457982 0.098545246 0.22487254 0.22041613 -0.49113613 -0.6380338
0.0009672473 -0.49631545 -0.10607183 -0.11910631 -0.18861075 -0.26859242 -0.069177836 0.18549496
-0.42973918 -0.092090935 -0.19410872 -0.06684126 0.26622897 -0.31478542 0.08267911 0.10440285
0.52370656 0.5629971 0.01771905 -0.06895886 0.1408038 0.642886 -0.010080042 -0.0471828
0.4465861 -0.383688 -0.54216665 0.04035316 -0.4553318 -0.6177987 -0.220608 -0.06861567
0.1556461 0.15595122 0.23695649 0.4253223 0.20585538 0.109934226 -0.04778994 0.28386134
0.4336389 -0.008282882 0.0019160425 0.705201 0.103334166 0.06651639

features.0.banch1.1.weight f4 [6]
00000000: d032 823f 28ad 6f3f 85b6 6f3f 631a b03f
00000010: ac28 8a3f 8b08 313f
1.0171757 0.9362359 0.9363788 1.3758053 1.0793662 0.6915366

features.0.banch1.1.bias f4 [6]
00000000: 121b 853e e9ec 0abc 2d59 4b3e 3994 89bd
00000010: b3c5 d3bd 745f 213e
0.25997216 -0.008479335 0.19858237 -0.06717724 -0.103404425 0.15759069

features.0.banch1.1.running_mean f4 [6]
00000000: 88b4 4f3d 03ee 4abf b39d 2e3f 687f 463e
00000010: dbca fabd 0be3 9a3f
0.050709277 -0.7926943 0.6820938 0.19384539 -0.12245723 1.2100538

features.0.banch1.1.running_var f4 [6]
00000000: fc5e e63d f648 1340 a987 403f 574c 9d3f
00000010: 3bb0 0a3e ad02 1f40
0.112485856 2.3013282 0.75207 1.2288922 0.13543789 2.4845383

features.0.banch1.2.weight f4 [6, 6, 1, 1]
00000000: 6072 b43e 9824 b0be 39de 053f 7b6e 193e
00000010: b536 9dbe 481f 983e 3b00 b3be 5374 a43e
00000020: ee7c 97be 7aa1 373c 0c2c 113f de41 a3bd
00000030: c5f0 6abc 7ab2 1ebe 57c9 123e 7c37 0e3f
00000040: 85ec 143e fdea 823e 35cb a83e b97d 90be
00000050: 5b1d 8ebe 1d55 11bf d84e 903e 6527 853d
00000060: ef37 46bf 6913 a7be de34 d9be 3b2a 013f
00000070: e4b1 d23d b106 6bbe 359c 113e 9a85 f9bd
00000080: 1e1e 6ebe dc4e 22bf b96d 48be c48b 88be
0.3524351 -0.3440292 0.5229221 0.14983551 -0.307058 0.29711366 -0.34961113 0.32119998
-0.295875 0.011207933 0.56707835 -0.079715475 -0.0143396305 -0.15497771 0.14334618 0.5555341
0.1454335 0.25569907 0.32967535 -0.2822092 -0.2775677 -0.567705 0.28185153 0.065016545
-0.774291 -0.32631996 -0.42423147 0.50455064 0.10287836 -0.22951771 0.14219745 -0.121836856
-0.23253676 -0.6340158 -0.19573106 -0.26669133

features.0.banch1.3.weight f4 [6]
00000000: 4780 763f 384f b23f 86fc 813f de59 5a3f
00000010: df04 a13f 8ab1 903f
0.96289486 1.3930426 1.0155189 0.85293376 1.2579612 1.1304181

features.0.banch1.3.bias f4 [6]
00000000: 92e0 283f a649 233e 6061 6dbe 4766 843e
00000010: deaf 133f 0c67 ae3e
0.6596767 0.15946063 -0.23181677 0.2585928 0.5769023 0.34062994

features.0.banch1.3.running_mean f4 [6]
00000000: 6b5c 8e3e 7d81 70be afa1 463c c4f4 5f3d
00000010: 0c15 c9be db20 c93c
0.27804884 -0.23486896 0.012123509 0.054676786 -0.3927387 0.0245518

features.0.banch1.3.running_var f4 [6]
00000000: f47b a63f 4196 8c3f 1a2a 443f 5989 4e3f
00000010: 7eb4 b13f 32c5 6a3f
1.3006577 1.0983354 0.7662674 0.80678326 1.3883207 0.91707146

features.0.banch2.0.weight f4 [6, 6, 1, 1]
00000000: 5859 573c b50c c93e 5fb8 733e cb81 b23e
00000010: 73c5 f0be 4def 4abc d9cd 023f 8754 ac3e
00000020: 3f38 cebd f844 b43e cf12 a93e 63f3 9c3d
00000030: f952 a8be c117 5dbd 0dbb 593e 16cd d0bc
00000040: c856 43bf 13dd ba3e 4cc0 58bd 0436 14be
00000050: 563f 93be cbc7 92be 8b14 5fbe ce49 96be
00000060: 846c 8ebc feed 3ebe 6f59 3f3e be39 4ebe
00000070: 66b5 8b3e e20f 083f a24c 9bbe e260 64bd
00000080: 82da debd 8437 c33e 2ae3 e5be 1e6b 2c3e
0.01314386 0.39267507 0.238008 0.3486465 -0.47025642 -0.012386155 0.5109535 0.3365824
-0.10069322 0.3520887 0.33022162 0.0766361 -0.32875803 -0.05397773 0.2126276 -0.025488418
-0.7630429 0.3649679 -0.052917764 -0.1447373 -0.2875926 -0.28668055 -0.2178518 -0.29353184
-0.017385729 -0.18645474 0.1868646 -0.20139214 0.27286834 0.53149235 -0.30331904 -0.055756457
-0.10881521 0.38128293 -0.44899875 0.16837737

features.0.banch2.1.weight f4 [6]
00000000: 512e 9d3f 8e6f 603f da2b e83f 35c5 a93f
00000010: a46a 5b3f d106 bf3f
1.227976 0.8767022 1.8138382 1.3263308 0.85709596 1.4923955

features.0.banch2.1.bias f4 [6]
00000000: ab3f a6bd 2fa1 b83e 0dfd 84bb e217 023e
00000010: c71e 66be a4ac 6f3d
-0.081176125 0.36060473 -0.0040584863 0.12704423 -0.22472678 0.058514252

features.0.banch2.1.running_mean f4 [6]
00000000: 6184 c83e 9568 8d3f 8643 b2be 8bb0 76bf
00000010: 4453 e73e bedb 33be
0.39163497 1.1047541 -0.3481714 -0.96363133 0.45180714 -0.17564294

features.0.banch2.1.running_var f4 [6]
00000000: 7aa2 9a3f 557d c83e 0efb 143f ef2e 7f3f
00000010: 5a2c f13d b2d4 aa3e
1.2080834 0.3915812 0.5819558 0.9968099 0.117760375 0.333654

features.0.banch2.3.weight f4 [6, 1, 3, 3]
00000000: 084b 65be f87a 71bd ef3d 17be d7ee 4f3d
00000010: b765 ce3c f947 903d 1cdc dcbe 058b 5abe
00000020: 47e3 9f3e 11df 2b3e 1428 b43e f45e ecbe
00000030: 3244 423e 602f 53bb c946 33bf 61a5 d4ba
00000040: 23e6 2bbe e8cf 76be 573e e3be 507e 2abe
00000050: 71c3 8abe 6db4 e73d e2ed f5be cc54 b93d
00000060: 3ce1 2dbc b194 8dbe ba25 143d 1adb 583e
00000070: a252 213f 6b7b 59bd ae5f 07be 6ac9 a23e
00000080: 8070 ecbd 39d1 03bf 53dd d53d c024 24be
00000090: 7cef 313e adf8 70bd 6e68 02be 6c36 d5bd
000000a0: 8b9e 77be c72f 5abe d2cd 2a3c 6a2a debe
000000b0: 0da6 d4bd 940d 0fbf c7e5 c63e 7f6d 3b3e
000000c0: 2d0f 82be dd1d b53e 8c6e 983d bc48 1a3e
000000d0: 510f cb3e 016a 52be
-0.22391903 -0.058955163 -0.1476972 0.050764885 0.025194986 0.07044978 -0.4313668 -0.21342094
0.31228086 0.16784312 0.35186827 -0.46166193 0.18971327 -0.0032224283 -0.70029885 -0.0016223603
-0.16787009 -0.24102747 -0.443835 -0.16649747 -0.27102235 0.1131371 -0.48033053 0.09049377
-0.010612782 -0.27652505 0.03616879 0.2117733 0.6301671 -0.053096216 -0.13220093 0.31794292
-0.11544895 -0.51491123 0.10442605 -0.16029644 0.17376512 -0.058830906 -0.1273515 -0.10410771
-0.24181573 -0.21307288 0.010425048 -0.43391734 -0.10383234 -0.55880094 0.3884718 0.18303488
-0.25402203 0.35374346 0.0744296 0.15066808 0.39660123 -0.2054825

features.0.banch2.4.weight f4 [6]
00000000: 263f 4a3f 537e 943f 8632 543f dcbc ad3f
00000010: 6a96 213f fc5c 673f
0.79002607 1.1601051 0.8288959 1.357326 0.6312014 0.9037626

features.0.banch2.4.bias f4 [6]
00000000: 78ee 47be a2ea 583e 7ed1 32bd 2d9e 233e
00000010: 1b8d d83c e515 be39
-0.19524562 0.21183255 -0.04365682 0.15978308 0.026434472 0.00036255937

features.0.banch2.4.running_mean f4 [6]
00000000: 58b2 5dbe 4d77 93be ef4e 4fbf 23b4 283e
00000010: fa98 59be 9967 7b3e
-0.21650064 -0.28801957 -0.8097982 0.16474967 -0.21249762 0.24551238

features.0.banch2.4.running_var f4 [6]
00000000: fe39 083f a04d 933f 3440 3d40 6829 ae3d
00000010: a474 ee3e ee4d 643f
0.5321349 1.1508064 2.9570436 0.08503991 0.46573365 0.8918141

features.0.banch2.5.weight f4 [6, 6, 1, 1]
00000000: 2f0c 58be 7544 1ebe ce3a 04be f049 5fbf
00000010: 865b 2b3e 0c34 debe 3332 ec3e 2d7c c6ba
00000020: 7883 6d3d 4271 f3be f1cf 043e 3a1c 853e
00000030: 690b 30be c8b0 583e 1a23 fe3d cbf4 263f
00000040: d12d b73e bae8 3dbb 70f3 6cbd d12d cabc
00000050: a05d 14bd b7f6 253f 41b4 453d 7d88 0f3d
00000060: f615 ca3e cac9 fcbe 8b1a b03e 1675 953d
00000070: ef40 e5bd 5db4 0fbf 1443 9c3e a4fa 22bf
00000080: 1749 fd3e c771 b5bd 5918 f8bd 47b2 033e
-0.21098398 -0.15455802 -0.12913057 -0.87222195 0.16734132 -0.43399084 0.4613205 -0.0015143208
0.057986706 -0.47547346 0.12969948 0.25998098 -0.17191853 0.21161187 0.12409039 0.65217274
0.35777143 -0.0028977827 -0.057849348 -0.02468005 -0.0362221 0.6482958 0.048267607 0.035042275
0.3946988 -0.49372703 0.3439525 0.07297723 -0.11194026 -0.5613459 0.30519927 -0.636637
0.49469826 -0.08859592 -0.12114019 0.12860976

features.0.banch2.6.weight f4 [6]
00000000: 0dcf 9f3f 3cfb 983f 4f28 803f c72f 733f
00000010: 526f 833f ac15 623f
1.2485062 1.1951671 1.0012301 0.9499478 1.0268347 0.8831432

features.0.banch2.6.bias f4 [6]
00000000: 2299 513e c211 bb3e 4a32 fb3d 8b75 0c3d
00000010: 8dd8 ef3d 9456 633e
0.20468572 0.36536986 0.12265451 0.034291785 0.11711226 0.22200996

features.0.banch2.6.running_mean f4 [6]
00000000: cc33 ecbd ed8c 25be a8c7 3a3e 56b4 e13d
00000010: c7be 3dbe d71b 6dbe
-0.11533317 -0.1616704 0.18240225 0.110207245 -0.18529807 -0.23155151

features.0.banch2.6.running_var f4 [6]
00000000: 7da7 be3f 5811 013f a7e5 8e3f ef7d 3f3f
00000010: e866 6a3f ed41 6d3f
1.4894863 0.5041709 1.1163834 0.74801534 0.9156327 0.9267872

features.1.banch2.0.weight f4 [6, 6, 1, 1]
00000000: c520 ff3d 8c13 29be 4918 5ebf da14 72bc
00000010: 89bb 3e3e 7fbf e1bd 84fa 4a3e 56dc 033e
00000020: e17f 973e 2ad9 1f3f 3ffc 933e 6702 1c3f
00000030: 28e3 213e d01a 053d 502f 70bd c622 54be
00000040: 4998 08bf b21a 05be 9845 eebe a396 7dbe
00000050: 1920 a5bd 5b0f e63d cf4b f33e 4fb3 87be
00000060: 6ccd bdbe 9846 02bf 2b5d d13d cf76 c3be
00000070: 6d2e 2dbe e0e1 83be 86ca 18be a553 76bc
00000080: 4581 8dbf 22c4 9f3d 3cef 5e3e eb65 593e
0.12457422 -0.16511363 -0.86755806 -0.014775479 0.18626226 -0.11022853 0.19822127 0.1287702
0.2958975 0.6244074 0.28903386 0.60941166 0.1580931 0.032496274 -0.05863887 -0.2071639
-0.5335737 -0.12998465 -0.4653747 -0.24764495 -0.08062763 0.112333976 0.47518775 -0.2650399
-0.37070787 -0.5088897 0.102228485 -0.3817658 -0.16912241 -0.25758266 -0.14921007 -0.015034591
-1.1055075 0.07801081 0.21770948 0.21230285

features.1.banch2.1.weight f4 [6]
00000000: a6dc 3d3f d60a a13f 93f2 783f d2d0 b83f
00000010: 4a5f 983f d46e 5c3f
0.7416481 1.2581432 0.9724514 1.4438727 1.190408 0.8610661

features.1.banch2.1.bias f4 [6]
00000000: d2bf de3e d33f 51bd c488 c8bd 4cb0 393d
00000010: ee48 4c3e b245 843e
0.43505722 -0.05108626 -0.09791711 0.045334145 0.19949695 0.25834423

features.1.banch2.1.running_mean f4 [6]
00000000: ca14 2dbf a1eb 803f 07c4 ccbe 04b1 d7bd
00000010: dac7 19bf 104b 41bf
-0.67609847 1.0071908 -0.39993307 -0.1053181 -0.60070574 -0.7550516

features.1.banch2.1.running_var f4 [6]
00000000: 8430 313f 3342 123f 0578 953d beec a63d
00000010: 7c89 843e b20e 453f
0.69214654 0.5713226 0.072982825 0.08150624 0.25886142 0.7697555

features.1.banch2.3.weight f4 [6, 1, 3, 3]
00000000: d902 9dbe 4caf 3ebd 0218 8fbe 1311 d53d
00000010: abbd 853e 15d4 d33d dd69 0b3f a5cd 2ebf
00000020: 0a8a 5dbc b06e 883d 121f 50be f459 6bbe
00000030: b48f f13e ff8c a13c 8bfe afbd 2a79 cb3e
00000040: 5af8 15bc 2cc4 eabe bbb4 6ebe 8c80 f6be
00000050: efba 6d3d 4838 97be c1f1 273e 6ec6 343e
00000060: d8bb 2c3e b37b f4be 45bb 663e bb6f fbbe
00000070: a2e8 7abe ff63 98be bb5a 77be 4c6c 6abe
00000080: a6ab 963e ef16 413c 834d 41be 59e6 653d
00000090: a675 713c 679f 6d3e 2530 93bc 4f58 d1bd
000000a0: 6852 ae3e d332 393e e39e 40bf 03bd 8cbe
000000b0: 16f3 9dbd e1d2 2fbe e5a2 a33d 41fd 933e
000000c0: 345a a1bd 06be cabe 20c8 efbd 9d59 0e3f
000000d0: 9826 afbe c369 9bbe
-0.30666235 -0.046553895 -0.27948004 0.10403647 0.26121268 0.10343186 0.5445841 -0.6828254
-0.013521681 0.06661737 -0.20324352 -0.22983533 0.4717995 0.019720552 -0.08593472 0.39740878
-0.00915345 -0.45852792 -0.2331113 -0.48144948 0.058039602 -0.29535127 0.16400816 0.1765382
0.16868532 -0.47750625 0.22532375 -0.4910868 -0.24502805 -0.2976379 -0.24155705 -0.22892874
0.29427832 0.011785253 -0.18877225 0.05612788 0.014737522 0.23205338 -0.017967293 -0.10221922
0.34047246 0.18085794 -0.7524244 -0.27487954 -0.077123806 -0.17170288 0.07990054 0.28904155
-0.07878533 -0.395981 -0.11708093 0.5560549 -0.34209132 -0.30354127

features.1.banch2.4.weight f4 [6]
00000000: fec9 9d3f e277 5b3f 2ff3 153f 14bf 273f
00000010: 1bab 953f 4640 b43f
1.2327268 0.857298 0.58574194 0.6552594 1.1692842 1.4082115

features.1.banch2.4.bias f4 [6]
00000000: 19ce 4fbe 7a3c fcbd ec8f 38be 2332 4ebd
00000010: cc31 c8bd e8bc f5bd
-0.20293464 -0.123162225 -0.18023652 -0.050340783 -0.09775123 -0.11998922

features.1.banch2.4.running_mean f4 [6]
00000000: c53f 11be e670 23bc 002e 5fbe 03f6 1dbf
00000010: 2b7a 2bbe ebf1 7ebe
-0.14184482 -0.009975648 -0.21794891 -0.6170351 -0.16745822 -0.24896972

features.1.banch2.4.running_var f4 [6]
00000000: 2177 003e 99d0 d63f 0239 dc3d f473 ae3e
00000010: 2542 ab3e 31eb 213e
0.12545444 1.6782409 0.10753061 0.3407284 0.33448902 0.15812375

features.1.banch2.5.weight f4 [6, 6, 1, 1]
00000000: 863b a53e 21fb 12be 1a10 1eb8 6101 adbd
00000010: a064 34bf 8a55 0cbf 9a8a 073f b770 9cbe
00000020: 213e f33d 1fda bf3d bcb7 563e 2f7f 753e
00000030: b3e6 0ebf 7d46 adbd 1a81 a4be 571c dabd
00000040: 36ac 9ebd cc3d 0cbf 4d60 08bf aa6e 18be
00000050: f3a0 84bd 35c3 66be 5544 82be 3a85 12bf
00000060: 560c 00be 6329 6e3e 4c1a 813e bde6 62be
00000070: df5e a43e 0e09 de3e 306a 083e a8e6 e43e
00000080: 3904 dc3d 8f53 f33e bf07 fe3e cfc5 90be
0.32271975 -0.1435361 -3.768513e-05 -0.08447529 -0.7046604 -0.5481802 0.52945864 -0.30554745
0.118770845 0.09367775 0.20968527 0.23974298 -0.5582077 -0.0846071 -0.32129747 -0.10649937
-0.077476904 -0.54781795 -0.53271943 -0.14885965 -0.06476011 -0.22535403 -0.25442758 -0.5723454
-0.12504706 0.23257975 0.25215375 -0.22158332 0.3210363 0.43366283 0.13321757 0.44707227
0.10742993 0.47524688 0.49615285 -0.28275916

features.1.banch2.6.weight f4 [6]
00000000: 639c 9a3f 41b0 913f 4941 933f 9afc 8b3f
00000010: 3343 5e3f c88a 7b3f
1.2078975 1.1381913 1.1504298 1.0936463 0.8682129 0.9825864

features.1.banch2.6.bias f4 [6]
00000000: 74fd 0f3f 6bcc 89bd e7ad 983e d42c 003f
00000010: 001c 0fbf 2e07 563e
0.56246114 -0.06728443 0.29820177 0.500684 -0.559021 0.20901176

features.1.banch2.6.running_mean f4 [6]
00000000: de2d 9b3d d58e 11be 9656 803e 10e1 6b3e
00000010: f5ed e0bd f269 0abe
0.07577108 -0.14214642 0.2506606 0.23035073 -0.10982887 -0.13516977

features.1.banch2.6.running_var f4 [6]
00000000: fd54 ae3f 9291 813f ff7c be3f 0c21 cc3f
00000010: 0e22 233f 45f9 393f
1.3619686 1.012255 1.4881896 1.5947585 0.6372384 0.7264598

features.2.banch2.0.weight f4 [6, 6, 1, 1]
00000000: 2be4 123f 341b fabd c749 683e eea5 803d
00000010: 4d8f 9dbe c589 a43e d8f2 9fbe 675b 313f
00000020: d425 67be c732 a9be 7b4e 623d 8e78 52be
00000030: a8cd e3be 942c 133f a109 803d d426 d4be
00000040: 1b56 ab3d de75 a6be b347 2b3f 3aff e5bc
00000050: 3b54 a13e 32f1 8cbd 2936 97be 50db 8e3d
00000060: dd75 2f3e 192d dfbd 905e a43e 7232 70be
00000070: d0cf b1be 6d84 5b3e 7f15 6f3e da0f 42bd
00000080: 732e 0fbf b162 e73e f091 e6be 26c3 ddbe
0.57379407 -0.1221222 0.22684394 0.062816486 -0.30773392 0.3213636 -0.31239963 0.69280094
-0.22573024 -0.33046553 0.055250626 -0.205538 -0.4449284 0.57489896 0.062518366 -0.41435874
0.08366033 -0.325118 0.6690628 -0.028075803 0.31509575 -0.06881942 -0.29533508 0.06975424
0.17134805 -0.108972736 0.32103395 -0.23456743 -0.3472886 0.21437235 0.23348044 -0.0473784
-0.5593025 0.45192483 -0.45033216 -0.4331295

features.2.banch2.1.weight f4 [6]
00000000: 2aca 323f fad7 8a3f 0cb4 883f 594e 933f
00000010: fcb8 833f f4c9 a23f
0.6983973 1.0847161 1.0679946 1.1508285 1.0290828 1.2717881

features.2.banch2.1.bias f4 [6]
00000000: 6f3c de3e af3e 4d3e e72d 7b3e 9f11 c7bc
00000010: f23b 053e 5ade 203e
0.43405482 0.20043443 0.24529229 -0.024300395 0.13011149 0.1570982

features.2.banch2.1.running_mean f4 [6]
00000000: d6fa c03e d4a8 d63d 2d1b 84bd 1f9c c93e
00000010: f5cf d03c 7288 bbbe
0.37691373 0.1048142 -0.06450496 0.39376923 0.025489787 -0.36627537

features.2.banch2.1.running_var f4 [6]
00000000: 9558 013f 0794 203f b06c 093f f346 1f3f
00000010: 0c45 5f3e 938d c53e
0.5052579 0.6272587 0.5368147 0.62217635 0.21803683 0.38584575

features.2.banch2.3.weight f4 [6, 1, 3, 3]
00000000: d6e3 5ebd 130c ddbc 91eb 613e 5cc9 c0be
00000010: ea1c 203b 4507 5cbc 0144 c6bd e508 09bf
00000020: 5818 a5be 1ccb 8ebe 7cf3 65be 1567 1d3e
00000030: ddb3 93bd f013 193d 1ae3 ccbe 80bf 5e3e
00000040: 6e76 683e 223c 373f c7ab 333e 1bce efbe
00000050: 7e07 1a3f 2598 c8be fb96 76bb 0f6c 083f
00000060: 5ae2 6cbe 25a3 a03c 6779 cb3e 6813 893c
00000070: e7ff a7be 7328 5dbe 78f2 183e 9626 943e
00000080: 54cd db3d abc8 b33e 65d4 f6be 6d35 6ebe
00000090: 4f94 cebd 3a4b 21bf 0091 203e c1e7 80be
000000a0: 7c91 263e 2e75 743e cdea 91be 7e43 573d
000000b0: 032d c13d 6b24 9b3e 68fd 0b3e 1d51 d6be
000000c0: e77e 923e be68 a33e 539a d93e 0529 39bd
000000d0: 5174 09be e8e7 af3e
-0.0544165 -0.026983296 0.22062518 -0.37653625 0.0024431297 -0.013429468 -0.096809395 -0.53529197
-0.32245135 -0.27889335 -0.22456163 0.15371354 -0.072120406 0.03737253 -0.40017015 0.21752739
0.22701427 0.7157613 0.17545997 -0.46836933 0.6016768 -0.39178577 -0.0037626612 0.53289884
-0.23133221 0.019609043 0.3974106 0.016732886 -0.32812425 -0.21597461 0.14936244 0.2893569
0.107325226 0.35114035 -0.4820892 -0.23262568 -0.10086881 -0.6300541 0.15680313 -0.25176814
0.16266435 0.23872826 -0.2849945 0.0525546 0.094324134 0.30301222 0.13670886 -0.4185876
0.28612444 0.3191585 0.42500553 -0.045205135 -0.13423277 0.34356618

features.2.banch2.4.weight f4 [6]
00000000: 23d7 623f 997d a13f 1daf 843f 8974 913f
00000010: 1123 4e3f b434 8b3f
0.8860952 1.2616454 1.036594 1.1363689 0.8052226 1.0875459

features.2.banch2.4.bias f4 [6]
00000000: d621 99bd f3b1 613d a9a5 07be a5b0 f9bc
00000010: edf4 353e 5db5 70be
-0.07477157 0.055101346 -0.13246788 -0.030479738 0.17769213 -0.23506685

features.2.banch2.4.running_mean f4 [6]
00000000: bc3d fbbe 6fed 213e 887e 7a3e 1b83 f7bd
00000010: b572 5ebe 4b0d 2c3f
-0.49070537 0.1581323 0.2446233 -0.12085553 -0.21723445 0.67207783

features.2.banch2.4.running_var f4 [6]
00000000: e8bc 753e 033d b13e 8f1f 4f3f dd59 e43e
00000010: 51eb e13e 5fcb 023f
0.23997843 0.3461686 0.8090753 0.4459981 0.44124845 0.5109157

features.2.banch2.5.weight f4 [6, 6, 1, 1]
00000000: 78a5 993e eed4 94be d98a 89bd dcd1 2ebf
00000010: f42d 923e 6112 483e 7cf4 263f ed31 ff3e
00000020: e139 a4bc 98da 613e b3f0 d63e b18e d83e
00000030: 17d4 bbbb b3d0 24bf 9025 2ebd da27 1fbe
00000040: 503b bb3d f339 99be ce8c 593e 740d 9a3e
00000050: ca6c dc3e 427a 94be 2a3b a1be a75f 0f3e
00000060: 02dc 933e e77c b8bd 65ab 00bd 12c9 0d3f
00000070: dcd3 4a3d a2a2 113f 22aa b23e 337b da3d
00000080: 7449 cabe 48b2 d83d 37ca 20be c5a5 24bf
0.30009055 -0.29068702 -0.06715936 -0.6828897 0.28550684 0.19538261 0.65216804 0.49842778
-0.02004713 0.22056043 0.41980514 0.42296365 -0.00573207 -0.6438095 -0.04251629 -0.15542546
0.09142172 -0.29927024 0.21245119 0.3008839 0.4305175 -0.28999525 -0.3149045 0.14001332
0.2887879 -0.09008198 -0.031413455 0.55384934 0.04951845 0.5688878 0.34895426 0.1066803
-0.39509165 0.105808794 -0.15702139 -0.64315444

features.2.banch2.6.weight f4 [6]
00000000: f6cc 263f 0f60 a33f 7d51 423f 5ff9 353f
00000010: ac05 6e3f c954 733f
0.65156496 1.276369 0.7590559 0.71083635 0.92977405 0.95051247

features.2.banch2.6.bias f4 [6]
00000000: 760a bd3e dafb 8d3e 0ef5 173e 5d17 073c
00000010: 299e 293d 833f e53e
0.36922044 0.2773121 0.14839575 0.008245316 0.0414106 0.44775018

features.2.banch2.6.running_mean f4 [6]
00000000: 7eb2 93ba 31ca 42bd a74f 803d 5a93 0dbe
00000010: aaa6 25be 4e93 193e
-0.0011268405 -0.047556106 0.062651925 -0.13825741 -0.16176859 0.14997599

features.2.banch2.6.running_var f4 [6]
00000000: 6f86 733f 48a1 8d3f 6f33 513f 11de 1e3f
00000010: d38c 683f bb27 873f
0.95127004 1.1064844 0.81719106 0.62057596 0.9083988 1.0559

features.3.banch2.0.weight f4 [6, 6, 1, 1]
00000000: d825 f7bb 5836 3ebe 6f9b f3bd 2e76 963e
00000010: 5aad 183f c231 e43e 8921 063e 4fa6 f93e
00000020: ec43 30be 887e a3be 0193 d2be ca99 9cbe
00000030: 6c61 d1be 519e 9d3e a87b fabe 3867 6fbe
00000040: cb83 b23e b282 63be 57a0 143f d025 9d3d
00000050: b090 babe 1f0e 78be 10ff c3be 8f93 113e
00000060: 70d0 8cbd 406a 0cbc ad66 4d3f 0436 a13e
00000070: 8abd 7abe 0371 f6be 63e0 3cbe f9a9 e03e
00000080: acbd c83e 581c 7abe 1230 c33d 75fd d33e
-0.007542353 -0.18575418 -0.11894881 0.2938704 0.59639513 0.44569212 0.1309873 0.48759696
-0.1721341 -0.31932473 -0.4112778 -0.30586082 -0.4089464 0.30784848 -0.48922467 -0.23379219
0.34866175 -0.22217825 0.5805716 0.07673228 -0.36438513 -0.24224137 -0.38280535 0.14216445
-0.06875694 -0.008570254 0.80234796 0.31486523 -0.24486366 -0.48133096 -0.18444972 0.4387968
0.39207208 -0.24424875 0.09530653 0.4140431

features.3.banch2.1.weight f4 [6]
00000000: 9ec7 aa3f 4124 c23f 8e99 903f 346d 803f
00000010: caac b53f a29e 6b3f
1.3342168 1.5167314 1.1296861 1.0033326 1.4193356 0.9203893

features.3.banch2.1.bias f4 [6]
00000000: 56af 08be be58 153d 7cc2 833e be9b a6be
00000010: 437c 683e a9bb 1bbe
-0.13348135 0.036461584 0.25734317 -0.32540697 0.22703652 -0.15208305

features.3.banch2.1.running_mean f4 [6]
00000000: 7615 243f 65c8 f4be 6c88 c1be b571 54be
00000010: 246e b23d 3ce8 063f
0.64095247 -0.4780914 -0.37799394 -0.20746501 0.08712414 0.5269811

features.3.banch2.1.running_var f4 [6]
00000000: 5d83 d93e ac1a a93e f1d9 133f 5d89 de3e
00000010: 7af6 883f 4ef9 173e
0.42483035 0.33028162 0.5775443 0.43464175 1.0700219 0.14841196

features.3.banch2.3.weight f4 [6, 1, 3, 3]
00000000: 53bf 22be d69a 95bd 95ea bfbe 6557 513d
00000010: 958a efbe 6eba 343e f98f 9e3e dbd2 15bf
00000020: 17e1 8f3d f1f9 1d3e f0a8 9bbe 5a3d 6e3e
00000030: ab00 f43e 694b 40bc 9e58 a13e 3464 013f
00000040: 668f b83c ed93 29be 1330 4e3d 3ea1 61bd
00000050: df1d e23e 1a18 14be d97d dfbe b274 113f
00000060: c4c2 47bc 6eff afbe 4d8c b13d 8d05 923e
00000070: 8cc9 aa3e 4117 7cbd 6208 db3d 2760 833e
00000080: b569 e5be cdd9 bbbd c504 733e 5283 0abc
00000090: 8a62 af3e 6bd7 af3e 4b23 01be b570 a6bd
000000a0: 3940 423e d6e7 67be c03f 5cbe 1bab 90bf
000000b0: a09b 38be fd03 b9bd de8c 99bd ba30 06bd
000000c0: 1757 8dbe 1ae7 b5bd 008d c93d 0c94 2bbe
000000d0: 8b4b 19bf 8ebf d23e
-0.15893297 -0.07304923 -0.3748366 0.051108737 -0.46785417 0.17649242 0.30969217 -0.58524865
0.07025354 0.15427376 -0.30402327 0.23265591 0.4765676 -0.011736729 0.31512922 0.5054352
0.022529315 -0.16560335 0.050338816 -0.055085413 0.44163415 -0.14462319 -0.43650702 0.5681869
-0.012192432 -0.34374565 0.086693384 0.2851986 0.33356893 -0.061545614 0.10694958 0.25659296
-0.4480721 -0.091724016 0.23732288 -0.008454161 0.34254867 0.34344038 -0.1261112 -0.08126966
0.18969811 -0.22647032 -0.21508694 -1.1302217 -0.18028116 -0.09033964 -0.074975714 -0.032761313
-0.27605507 -0.0888197 0.09841347 -0.16755694 -0.59880894 0.4116177

features.3.banch2.4.weight f4 [6]
00000000: b0c2 6d3f 8b88 793f 2474 893f 624e 7e3f
00000010: 3416 ac3f bf55 153f
0.92875195 0.97473973 1.0738568 0.9933835 1.3444276 0.58333963

features.3.banch2.4.bias f4 [6]
00000000: 25ab 86be 58d7 ab3d d02b 2a3e 2d1b 50bd
00000010: 9be3 983e 1a1e 013d
-0.26302448 0.08390683 0.16618276 -0.050807167 0.2986115 0.031522848

features.3.banch2.4.running_mean f4 [6]
00000000: d6b9 e7be ca6b 393f bea1 c93c b738 133e
00000010: 19b2 d3bd 8bd9 81be
-0.4525897 0.724301 0.024613257 0.14377104 -0.10336704 -0.25361285

features.3.banch2.4.running_var f4 [6]
00000000: 1a3f 843f a1c3 5a3f 6a18 133f 9d58 303e
00000010: bf70 803f 34e1 183e
1.0331757 0.85454756 0.5745913 0.17221303 1.0034407 0.14929658

features.3.banch2.5.weight f4 [6, 6, 1, 1]
00000000: b763 0e3f c4a5 1b3e 36ad b13e ac9a 983e
00000010: 57bc 1cbf 2b88 db3d 54e6 c73e 467f 8fbd
00000020: c0f2 53be 5c81 18be 02b7 eebe 83a2 d8bc
00000030: da7d 5f3e c56f edbe b183 1dbd e1a5 2cbd
00000040: 9b95 01bf 806b 01be 94fe 063f fdab fabe
00000050: aab1 48bc 8ab4 b23d 18d2 5bbe c24a d63e
00000060: 30cf adbe 8698 edbd 7645 efbe 914b 18bf
00000070: b60f b03e 347a 8dbe 392d 8e3c ad1e 48be
00000080: b125 1f3f d124 943e 1857 163e 2671 6f3e
0.556209 0.15199953 0.34702462 0.29805505 -0.61224884 0.10719331 0.39042914 -0.07006697
-0.2069807 -0.14893097 -0.46624 -0.02644468 0.21825352 -0.46374336 -0.03845567 -0.042150382
-0.50618905 -0.12638664 0.52732205 -0.48959342 -0.01224939 0.08725841 -0.21466863 0.4185391
-0.33947134 -0.11601357 -0.46732682 -0.59490305 0.34386986 -0.27632296 0.017355548 -0.19542952
0.6216689 0.2893434 0.14681661 0.23383006

features.3.banch2.6.weight f4 [6]
00000000: 7ec9 7c3f 9144 853f f1b8 453f 7663 4d3f
00000010: ad10 843f 33ed 8b3f
0.9874495 1.041155 0.77235323 0.8022989 1.0317589 1.0931762

features.3.banch2.6.bias f4 [6]
00000000: a38b 0d3e b18a 423e b8af 29bc 9ea0 37bd
00000010: 47a1 2a3e ecaf 603d
0.13822798 0.18998219 -0.010356836 -0.04483091 0.16663085 0.054855272

features.3.banch2.6.running_mean f4 [6]
00000000: 233a 8abe 3401 8dbe 1dfa 80be 845b 75be
00000010: 17c4 063e 62aa e43d
-0.2699748 -0.2753998 -0.2519082 -0.23960692 0.1316074 0.111653104

features.3.banch2.6.running_var f4 [6]
00000000: 6a28 d93f 7718 eb3e 18ad 3c3f 8865 773f
00000010: 575f dd3f e864 793f
1.6965458 0.45917103 0.7370162 0.966393 1.729472 0.97419596

features.4.banch1.0.weight f4 [12, 1, 3, 3]
00000000: 9109 a83b b43c ef3e 99c6 993e c3df 053e
00000010: 3879 22be dce6 e0be bbe7 f4bd 933f a2be
00000020: c542 afbe d3de e83e d405 333e bece dabd
00000030: 8aa6 6e3e c75d 453f 8c4c 473e 50e4 a63e
00000040: b5ff a63e 0a9c fbbc 61b6 753e 8162 233f
00000050: 7ef2 18bf fdc6 043e f8ce a63e 4510 5d3e
00000060: 025a 3f3d 90ff 373c 0509 21be 18b7 d6be
00000070: 92b4 be3d c370 d13b 9feb 9e3d 2dd1 093f
00000080: a284 933e 70cb 103e 7ce4 2ebf d604 cf3d
00000090: d945 133e 58d1 173f 0738 b83e cb6b edbc
000000a0: 59b3 d03e bb90 e83e e634 c9bd dcf9 e1bd
000000b0: f8dc 96be b1e4 acbe 9c4a b83d 0190 a5be
000000c0: 88c6 b63e 5842 b83e 92ae 24bf e8e8 e93d
000000d0: 1e9d 9ebd 9201 11bf b3f8 d9be 7865 133f
000000e0: 2b33 923e 6d64 053e c2b5 9cbe 9e2c a13d
000000f0: e68f 793d 7bfd d9be 011a 8b3d 228b 073e
00000100: 8ee6 193f db3a fe3e 1f5b 353e 3d61 85bd
00000110: fee4 6abe 8b04 eebd 3e7b 913d 8f0d 8d3e
00000120: 8d10 04be 1ff5 11bf 6c9d 59be b946 0d3e
00000130: 9f7e 393f e7de 043e b355 e6bd e4ae d53e
00000140: e943 c9be 8ec3 f63e c0cf 8f3e cd0b 4e3e
00000150: fc16 793e b077 8c3d dd3f 88bd 0688 05be
00000160: 41e7 073f b179 333f ec78 a9be 35cd d5be
00000170: cf2d 29be ee23 cb3e 8c3c 413e b4f8 92be
00000180: 7215 03be a1f0 623d 4152 abbe 120d f03e
00000190: dd6e b63d ca52 d23d 12d0 0b3e 6c3f 34be
000001a0: caa5 65bd 56d5 593f 943f 58be d5d1 39be
0.0051280935 0.46726 0.3003433 0.1307364 -0.15866554 -0.43926132 -0.119582616 -0.31689128
-0.3423063 0.454825 0.17482692 -0.10683964 0.23305717 0.7709622 0.19462794 0.32596064
0.32616964 -0.030714054 0.23995353 0.6382218 -0.59745014 0.12966533 0.3257978 0.21588238
0.046716698 0.011230364 -0.15726097 -0.41936564 0.09311785 0.006391616 0.07759785 0.538348
0.28812128 0.14140105 -0.6831739 0.10108344 0.14382114 0.5930381 0.35980245 -0.028982064
0.4076183 0.4542292 -0.09824543 -0.11033985 -0.2946546 -0.33768228 0.089986056 -0.3233643
0.35698342 0.35988116 -0.64328873 0.114213765 -0.077448115 -0.5664302 -0.42572555 0.57576704
0.28554663 0.1302659 -0.3060742 0.07869838 0.060928248 -0.42576203 0.06792069 0.13236669
0.60117424 0.49654278 0.17710541 -0.06512687 -0.22938916 -0.1162196 0.07103585 0.27549407
-0.12896939 -0.5701465 -0.21251458 0.1379651 0.72458833 0.12975655 -0.112468146 0.41734993
-0.39309624 0.4819607 0.28088188 0.20121689 0.24325174 0.06858766 -0.06652806 -0.1304017
0.5308724 0.7010756 -0.3310007 -0.41758123 -0.16521381 0.3967585 0.18870753 -0.2870537
-0.1280115 0.055405263 -0.33461192 0.46884972 0.08907864 0.10269697 0.13653591 -0.17602319
-0.056066312 0.8509115 -0.21118003 -0.18146451

features.4.banch1.1.weight f4 [12]
00000000: bef7 ad3f 2ba2 753f 044a 5d3f c563 5f3f
00000010: b071 ad3f 2d86 9c3f d5a7 143f 2b2c 193f
00000020: e1dd a53f 1898 963f 80a6 f43e 89c3 6c3f
1.359123 0.95950574 0.86441064 0.8726161 1.355032 1.2228447 0.5806859 0.5983302
1.2958337 1.1765165 0.4778328 0.9248586

features.4.banch1.1.bias f4 [12]
00000000: 4750 7f3d 71e9 b8bd cabe 2bbd bcfa 11be
00000010: 2314 04be 6b16 6b3d 1b43 aebc df4c 433c
00000020: 6a23 823d a71a ccbd 2105 69bc 5ab9 a93d
0.062332418 -0.090289004 -0.041929998 -0.14255804 -0.12898307 0.057394426 -0.021272233 0.011920183
0.06354411 -0.09966021 -0.014222414 0.08287306

features.4.banch1.1.running_mean f4 [12]
00000000: f596 aabe 40b5 6d3f f593 bc3e 500c 853e
00000010: c03f 753f 259f 0cbe 014f a2bc b661 7a3e
00000020: 9e87 4a3e 8ace 813f 451e 64be 44ed d83e
-0.33318296 0.9285469 0.36831632 0.25985956 0.958004 -0.13732584 -0.019813063 0.24451336
0.19778296 1.0141156 -0.22277172 0.4236852

features.4.banch1.1.running_var f4 [12]
00000000: ab67 aa3e c39b 2d3f b8f6 483e a781 d73e
00000010: 500b b03f 875e 453e 9a17 a03e a290 893d
00000020: 749a 793f 6e1b 373f 5d92 1d3e 9751 7a3f
0.33282217 0.678158 0.19625366 0.42091104 1.3753452 0.1927434 0.31268007 0.0671704
0.975013 0.7152623 0.15387864 0.97780746

features.4.banch1.2.weight f4 [12, 12, 1, 1]
00000000: df82 723e 0d1b 093f dceb b53e 46cd 0e3f
00000010: ec9b 633f 0c18 843d 3574 303e 3283 923b
00000020: ce50 043e e2e2 1ebb a956 90be fec0 acbe
00000030: 93f5 a83e f3c2 603e 4b0c b43e bd12 94be
00000040: 626f 8ebe f1f4 0f3f 5b64 acbd 04fc 3fbe
00000050: 354e 91be 08b5 cbbd 5ff9 f9bc 1f4a d43e
00000060: df48 f53e acd6 633e 364c 0abc fdae 7ebe
00000070: d60d ce3e 81fa 553c 34f8 98bc 4385 813e
00000080: 476c 2d3f ccba fb3e 6d80 7dbe 3b06 7d3e
00000090: a394 bd3e 716f e93d 4423 993e 0e5b dbbc
000000a0: e88a d43e de87 94be 35c4 01bf 8506 cd3d
000000b0: 944c 463b 0ad7 163e 6b38 013d 59ad 823e
000000c0: 0c44 6bbf dfdc bf3c 5ac4 10be 8c63 d23d
000000d0: bfc1 a73e ebfc 173d 9b95 243d 72a4 043e
000000e0: 3871 aabd dcab 393d 3939 cbba 51fc a53e
000000f0: f693 b8be a2d3 ef3b 8f60 743e 17aa af3c
00000100: ac18 183f b0e2 87be 887c af3e 0c8b 49be
00000110: e9b1 0abd 6820 23bf b6ae 923e f25c 813d
00000120: 7db9 bdbe 7f6a 83be d0a6 61be 253b c8bd
00000130: 0612 b4be bb23 1c3e 90b3 f6bc 0557 01bf
00000140: 5ea3 6b3e 5c2d 22be 9f79 4a3e e5b3 8abe
00000150: 3ee9 75be 5473 19be 774f 26be d5ed c93e
00000160: 33eb eb3e d486 273f 28ce 79bd 7486 16be
00000170: b572 7e3e 27dd 08bf f869 dfbc 9fc3 9cbe
00000180: 8d60 fcbd 008d b33e 4efb fa3e f540 8abe
00000190: 0fa2 3e3c 480c 9fbe 021c 46be 35af 68b9
000001a0: 0dc7 87be f06a 12be aef8 40bd 6068 413e
000001b0: 7be6 05bf a0cb 13bf 9fe7 95be 70bb b6be
000001c0: 03ce ebbc a1c1 e83d 4a27 b5bd c1f6 cdbc
000001d0: 9071 aebe c4df e23e 3010 8ebc 42f4 e8bd
000001e0: 5c09 e3bd bb51 91bd a422 0fba e6b8 d33d
000001f0: d15b d13d 92e8 d53d e4e1 3f3e 6e8d 8dbe
00000200: af0b 683f a6e9 fabe 51e3 5c3e 8f51 56be
00000210: 127a bf3e 4a69 a1be 8c41 8e3d e406 763c
00000220: d68e 963c e9b0 41bf d82e b63b 0874 58be
00000230: 9880 a5bd 293c a73e e94e a3bb 9db3 d23d
0.23682736 0.535569 0.3553151 0.5578197 0.8890979 0.06449899 0.1723183 0.004471206
0.1292145 -0.002424412 -0.28191116 -0.3374099 0.32999858 0.21949367 0.3516563 -0.28920546
-0.27819353 0.56233126 -0.08417579 -0.1874848 -0.2837998 -0.09946638 -0.030514417 0.414628
0.4790716 0.2224986 -0.008441022 -0.2487144 0.4024493 0.013060213 -0.01867304 0.25296983
0.67743343 0.49165952 -0.24756022 0.24709408 0.37027463 0.11398209 0.29909718 -0.026776817
0.41512227 -0.29009908 -0.50690013 0.10011009 0.0030258046 0.14730468 0.031547945 0.2552288
-0.91900706 0.02342075 -0.14137402 0.10272893 0.32765004 0.037106436 0.040181737 0.12953356
-0.08322376 0.045329913 -0.0015504725 0.32419065 -0.36050385 0.00731893 0.23864959 0.02144341
0.59412646 -0.26540136 0.34274697 -0.19681948 -0.033861075 -0.63721323 0.2864892 0.06316556
-0.3705558 -0.25667188 -0.2203629 -0.09776906 -0.3517 0.15248005 -0.030114919 -0.50523406
0.23011538 -0.15837616 0.19772957 -0.27090374 -0.24014756 -0.149854 -0.16241251 0.39439264
0.4607788 0.65440106 -0.06098762 -0.14699727 0.24848445 -0.5346245 -0.02727221 -0.30617997
-0.12323103 0.35068512 0.49019855 -0.27002683 0.0116353175 -0.31064057 -0.19346622 -0.00022190514
-0.2651905 -0.14298606 -0.04711216 0.18887472 -0.5230481 -0.5773258 -0.29278275 -0.35689878
-0.028784757 0.11365057 -0.088453844 -0.025142075 -0.34071016 0.44311345 -0.017341703 -0.113747135
-0.110857695 -0.07095667 -0.0005460179 0.10338001 0.10222591 0.1044475 0.18738514 -0.27646965
0.9064283 -0.49006385 0.2157109 -0.2092955 0.3739782 -0.31525642 0.06946096 0.015016291
0.018378656 -0.7566057 0.0055597834 -0.21138012 -0.08081168 0.32663086 -0.004983772 0.10288165

features.4.banch1.3.weight f4 [12]
00000000: c008 1440 dce2 a33f d681 b33f b167 893f
00000010: 5744 b33f 6e77 963f 8978 733f cf58 b33f
00000020: d305 8c3f 3dd3 833f e825 8f3f 496e 993f
2.313034 1.2803607 1.4023998 1.0734769 1.4005231 1.1755197 0.951058 1.4011477
1.0939277 1.029884 1.1183443 1.1986781

features.4.banch1.3.bias f4 [12]
00000000: 51c2 873f 14ad 333e 4057 a13e e8b6 5e3e
00000010: ebbf 213f 43c0 e03c 3be8 40bd cbc7 123e
00000020: 83df 9d3d 16b5 1a3e 50a6 07bd 58bc e13d
1.0606176 0.17546493 0.3151188 0.2174946 0.6318347 0.027435428 -0.047096472 0.14334027
0.07708647 0.15108141 -0.033117592 0.11022252

features.4.banch1.3.running_mean f4 [12]
00000000: 1dbb 80be 0c95 f33d 99ce 773c 3304 4dbd
00000010: 9f40 b3bd f982 8bbd 85de 993d 5528 e9bc
00000020: 403e afbc 0bf6 9c3c c7c5 673d 8cca ecbc
-0.25142756 0.11893663 0.01512494 -0.050052833 -0.0875256 -0.068120904 0.07513145 -0.028461615
-0.021391988 0.019160291 0.0565851 -0.028905176

features.4.banch1.3.running_var f4 [12]
00000000: bfc2 6740 9f27 993f 8364 e43f 3c11 803f
00000010: 11b3 0640 af46 f83f 7017 9f3f 62de fa3f
00000020: 8665 923f 585a 0340 1ebf e13f 233b 9b3f
3.6212614 1.1965216 1.7843174 1.000526 2.1046793 1.9396571 1.2429028 1.9599116
1.1437232 2.0523891 1.7636449 1.2127422

features.4.banch2.0.weight f4 [12, 12, 1, 1]
00000000: 2c63 963e 2aa0 8abd da86 463e 255f c83d
00000010: f702 1b3f 8a1a 23be 9533 c0be 979c 18bf
00000020: 8de1 8b3d 796b c23e 9088 383e 0832 08be
00000030: 4cd5 d1be 6ff3 ce3d 317c 013e a227 6db5
00000040: 3773 113f ff42 e5bc 5c2e c33e 0ea0 0d3d
00000050: 9e8b f6bd 5315 09be 20c3 503d 65e5 253d
00000060: 1632 9cbe 9400 9bbd 141f a2bd 700c 1c3e
00000070: b047 3d3e 74bd 543e 191e 97bc 6288 7f3e
00000080: 60d1 0cbf dac6 68be 2122 113e b8cd 0fbf
00000090: 4913 7bbf a1b2 06be 594d 973e 39e5 cabe
000000a0: 231f 05ba 91a9 643c 7414 b4bd 6a8d 68bc
000000b0: bea5 0abf 57dd 84be 73c3 623e 3ac1 babd
000000c0: e5f3 53be 5162 bdbc d4ec 33be 3a33 0cbe
000000d0: faa6 e1be ea7e 773e 8347 ab3e fed3 0ebd
000000e0: fb5b a03c 408d 0d3f 0b0c 97be c05e 14be
000000f0: 9fcd d7be 2095 c03e cac4 dd3e 6b3d d63e
00000100: 66ae 323e 17b5 ac3e 4255 31be a1bc 2c3e
00000110: 58d6 2abf 56ce 2bbe 9bdd 72bd 1c77 dfbe
00000120: 3101 b93e 14f6 6e3e f7d5 b53c ae85 5e3e
00000130: 0ea7 eb3d b254 2f3e 2878 3abf 34ce 163e
00000140: 9302 873e a1a7 c63d 1e22 a03d b8a7 c6be
00000150: dbd2 cc3c 903d a3be 7d03 00be a07d 0e3e
00000160: d1cd b8be a9ce 2cbe 5be0 0f3f daf5 c2bb
00000170: 3508 abbe 020b f93d 8d48 a1be df47 12be
00000180: 411b b93e 2efc cd3e a24b 083e 1719 393e
00000190: 8261 58bd eab0 9d3e de5a 0cbf b214 60bd
000001a0: 358b 59bd 9805 1ebb 4edf 8a3e d58d 31bd
000001b0: ef98 a7be 941a f4be 615a 8d3e 60ba c13d
000001c0: d135 203f a4ec e5bd dff0 37bc ecb9 adbe
000001d0: a7b0 c13d 7e9e 373e 2802 a0bb 5ea8 52be
000001e0: a3c5 93be 7a20 8f3d d165 cf3e 1732 92be
000001f0: 95eb a8be eec4 3b3e fe14 213e 9f9a 8fbc
00000200: cbf4 953e 2eff cdbe c8c6 c33e 927c a83e
00000210: 181e a53b 66c8 b9be 0d3e bd3c 8c3b 1abf
00000220: fb46 a1be 6cc8 3cbd 38d5 e5be 47b2 323e
00000230: da07 09bf ab21 3fbe 6bde af3d f4f7 463d
0.29372537 -0.0676883 0.1938738 0.097837724 0.605514 -0.15928093 -0.37539354 -0.5961394
0.0683013 0.3797262 0.18020844 -0.13300335 -0.40983045 0.10105025 0.12645032 -8.8347053e-07
0.5681643 -0.027986048 0.38121307 0.03457647 -0.120383486 -0.13387041 0.050967336 0.04050197
-0.30506963 -0.0756847 -0.07916084 0.1523912 0.18484378 0.20775396 -0.018446969 0.2495437
-0.5500698 -0.22732106 0.14173175 -0.56173277 -0.980763 -0.13154079 0.295512 -0.39628008
-0.0005078187 0.013956443 -0.087929636 -0.014193872 -0.5415915 -0.2595012 0.2214487 -0.09118886
-0.20698507 -0.02311817 -0.17570812 -0.13691416 -0.44072706 0.24169508 0.33452997 -0.03487014
0.01957511 0.55293655 -0.29501376 -0.1448927 -0.42149064 0.37613773 0.433142 0.41843733
0.1744934 0.3373191 -0.1731768 0.16868831 -0.6673331 -0.1677793 -0.05929337 -0.4364556
0.3613372 0.23336059 0.022196753 0.21730682 0.115064725 0.17122152 -0.72839594 0.14727098
0.2636915 0.096999414 0.07819007 -0.38799834 0.025002887 -0.31882906 -0.1250133 0.1391511
-0.36094525 -0.1687571 0.56201714 -0.005949718 -0.334047 0.12160303 -0.31500664 -0.14285229
0.36153606 0.4023146 0.13310102 0.18075977 -0.052827366 0.30799037 -0.5482615 -0.054707237
-0.053111274 -0.002411222 0.27123493 -0.043348152 -0.32733867 -0.47676528 0.27608016 0.09459376
0.6258212 -0.11226776 -0.011226862 -0.3393091 0.09457522 0.17931554 -0.0048830695 -0.2057204
-0.28861722 0.06988616 0.40507367 -0.2855384 -0.32992235 0.18336841 0.15730664 -0.017529784
0.29288325 -0.4023375 0.38237596 0.3290754 0.005038988 -0.36285704 0.023100877 -0.6024711
-0.31499466 -0.046089575 -0.44889235 0.1745082 -0.53527606 -0.18665187 0.08587345 0.04857631

features.4.banch2.1.weight f4 [12]
00000000: e937 3d3f ac72 673d f3d6 953f fd2d b13f
00000010: e73f aa3f ddab a13f 7a77 8b3f 9b5b b63f
00000020: 5dec 9d3f 629c a43f 0ac4 7f3f 266d 873f
0.7391344 0.056505844 1.1706222 1.384216 1.3300751 1.2630574 1.0895836 1.4246706
1.2337757 1.2860224 0.99908507 1.0580184

features.4.banch2.1.bias f4 [12]
00000000: f5c0 f03e 07d6 2e3f d975 5fbe b5ce 8ebc
00000010: a292 ce3c da70 85be 31a1 093e 5a26 143d
00000020: 4493 5a3d 346a 1f3e 0c45 9e3e dc50 8e3e
0.47022215 0.6829533 -0.21822299 -0.01743255 0.025216404 -0.2606266 0.13440396 0.036169387
0.0533631 0.15567857 0.30912054 0.27796066

features.4.banch2.1.running_mean f4 [12]
00000000: 7058 113f 7aa1 cc3e f077 13bf 9a78 a4bf
00000010: a726 85be 0ae2 5ebe 6e94 833e d362 b7be
00000020: 08ca a93e 84ad 0a3e 6eac 493d a923 a3bf
0.5677557 0.39966947 -0.57604885 -1.2849305 -0.26006052 -0.21765915 0.2569918 -0.35817584
0.3316195 0.13542753 0.049236707 -1.2745258

features.4.banch2.1.running_var f4 [12]
00000000: 98c5 803f b601 e33e f888 033f 453f 903f
00000010: f8f3 2b3f 5fee 7d3f 3932 523f be56 203f
00000020: 3358 2b3f 5477 263f b9a3 1e3f 4279 593f
1.0060301 0.44337243 0.5138087 1.1269308 0.6716914 0.9919185 0.82107884 0.6263236
0.66931456 0.6502583 0.6196857 0.8495065

features.4.banch2.3.weight f4 [12, 1, 3, 3]
00000000: e8ab d13e 0b99 74be 4cc5 b9bc fa4b 263f
00000010: 7035 873e 0c13 393e 0dd1 09be a5f6 04bf
00000020: 7ada 823d e2e3 f33e 61bc 4abd ee2f 1b3f
00000030: e7dd 8d3c e289 31bd 37f3 f43e f89c 14be
00000040: b807 be3d d60f c53d 1c37 8bbc 4754 113e
00000050: 711b ad3e 6c3d 1a3f f749 bdbe ef05 523e
00000060: 2e05 823e e4cd 303e b90c ddbd e9c0 ba3d
00000070: 4f0d 103e c727 df3e 99d6 98bd 8082 c53e
00000080: b85b 803e b0e3 8ebe 77cf cb3e 7366 86be
00000090: 3c57 b13e 3138 05be ab7e 21bd a56a babe
000000a0: 17a8 cabc dcbf 423e a94d 85be e58e 14be
000000b0: 4ae2 4ebf 2b32 173e 3f3a 7d3e e59e 06be
000000c0: c7c3 5a3e 01c1 c9bd ff94 84bf 88d3 cf3d
000000d0: f1dd 143d cb96 063f 85a0 1ebd bab8 29be
000000e0: 11b7 133d 6f9b 363e 78d0 0ebe 45be 5d3e
000000f0: a949 3b3f 10dc 203e f52a ed3e f423 3a3f
00000100: 2683 f9bd 0929 a73d 91da 693e 5e01 f43e
00000110: 152d 7e3d 7457 17be 7384 c1bb b09e 003e
00000120: b1fa d5bd d18b 263e a99e 00bf 82e1 0f3d
00000130: cdd6 2b3e 26d2 c03d 83ed 45be 2322 9fbe
00000140: f723 08bf ff5b 66bb ad7d 72be b5bd 30be
00000150: f80d 113e 06be 053f 991a 39be e91d 23be
00000160: e248 213f 692b 80be 9c71 84bd 461a a13e
00000170: d427 e6be 470a 9cbe 263e 4e3e d674 a4bd
00000180: abbc c3bc 4eb9 84be e12d ea3e 72f1 b23e
00000190: e3ba ec3e e4fe 7cbe bff9 89bd 0f77 af3c
000001a0: 94c8 c63e ff32 8abe ee78 c3bc 7ba8 14bf
0.40951467 -0.23886506 -0.022677086 0.6495968 0.26407957 0.18073672 -0.13458653 -0.5193885
0.06389327 0.47634798 -0.04949606 0.6062001 0.017317725 -0.043344386 0.47841808 -0.14513004
0.09278816 0.09622161 -0.016994052 0.14192306 0.3381 0.6024997 -0.36970493 0.20510076
0.25394577 0.17266041 -0.10793442 0.09118826 0.14067577 0.43585035 -0.07462806 0.38576126
0.25069976 -0.27908087 0.3980672 -0.26250038 0.34636867 -0.13009717 -0.03942744 -0.36409488
-0.024738355 0.19018501 -0.26035812 -0.14507635 -0.8081404 0.14765231 0.2472925 -0.13146551
0.21363746 -0.09851266 -1.035797 0.10147768 0.036344472 0.5257384 -0.038727302 -0.16574374
0.036063258 0.1783273 -0.13946712 0.21654613 0.7315927 0.15708947 0.46321836 0.7271111
-0.12183218 0.08162124 0.22837283 0.47657293 0.062054712 -0.14779454 -0.0059056818 0.12560534
-0.10448206 0.16264273 -0.50242096 0.03512717 0.16781159 0.09415083 -0.19328885 -0.31080732
-0.5317988 -0.0035150049 -0.23680754 -0.17259867 0.14165485 0.5224308 -0.18076552 -0.15929379
0.63001835 -0.2503312 -0.06466982 0.31465358 -0.4495226 -0.3047659 0.20140895 -0.08030097
-0.023893675 -0.25922626 0.45738128 0.34949833 0.46236333 -0.24706608 -0.067370884 0.021419076
0.38824904 -0.26992032 -0.023861375 -0.5806958

features.4.banch2.4.weight f4 [12]
00000000: b972 a23f 39b6 3a3f 9ed0 3b3f c532 853f
00000010: 200b 893f 27af 933f b4cc 8b3f 928f 8b3f
00000020: 040f 4a3f 3b9f b73f 5f9f 5c3f 1e29 3f3f
1.269126 0.729343 0.733652 1.0406119 1.070652 1.1537827 1.0921845 1.0903189
0.7892916 1.4345468 0.8618068 0.74672115

features.4.banch2.4.bias f4 [12]
00000000: ca2f a1bd 173e 833d 1ca1 893c b41f b93c
00000010: a962 b63d 9a5d e0bc ae5b 54bd 0d8a 56bd
00000020: 7e72 933d 516b 113d e1a0 713c dc06 bbba
-0.07870443 0.06408327 0.016800456 0.022598125 0.08905537 -0.027388383 -0.051845245 -0.05237775
0.07199572 0.035502736 0.014747829 -0.0014269012

features.4.banch2.4.running_mean f4 [12]
00000000: 9a77 9e3e d99b 4d3f 8922 8a3e 1bed 113f
00000010: 1b96 0bbf bcd2 aabd 101b 023f 8f30 2b3f
00000020: d9d9 a6be 79c7 2a3e 1da4 ffbd 725f b43d
0.30950624 0.8031593 0.26979473 0.5700242 -0.5452592 -0.08340976 0.50822544 0.6687097
-0.3258808 0.16677655 -0.12482474 0.08807267

features.4.banch2.4.running_var f4 [12]
00000000: 8eba 133f 8721 e73d 483e 163e 1360 ad3e
00000010: 0d3f 263f 74c5 2d3f df7f f13e 1624 443f
00000020: acff f33e bc0c 483f 3050 603e 2243 9b3e
0.57706535 0.11285692 0.14672196 0.3386236 0.6493996 0.67879415 0.4716787 0.7661756
0.47656 0.7814443 0.21905589 0.30324656

features.4.banch2.5.weight f4 [12, 12, 1, 1]
00000000: 69df 913e 3ba7 90bc 1d80 7d3d a2a4 463f
00000010: 4458 823c 39ea 0cbe 306c c6be c2bd 72bc
00000020: ad48 373f 433a 083f db77 0f3c 9087 57be
00000030: 9723 f7be 221c 26bd e6ab 303e 969f 1cbd
00000040: 43ee b8be bbe2 d1be 4f98 d7bd 1f25 dd3e
00000050: 9f31 4a3e e250 89be b30f 123f b7eb 8c3d
00000060: 2e3a bfbe 96d9 113e b160 043f d154 abbe
00000070: 6fe6 c33d 44ea 773d e63b 923d a49c 093f
00000080: 2111 61be 031b 193f 9b8b 033e bd7e 30be
00000090: bff8 d13c 0f58 713e 2b8c 813e 47a9 d9bd
000000a0: 0bd4 6ebc 702f e3be 9b08 8ebe ad33 59bd
000000b0: 4fae ba3d 4524 16bf ad1a 493e fc46 aa3e
000000c0: 66e9 df3e a271 c43e 8e44 1fbe 225a 29bd
000000d0: e9c7 0b3d 9bef f4be ce15 823b 2c35 f7bd
000000e0: 7366 6cbd 8c43 ba3e 368e f73e 04f7 0bbe
000000f0: 109e 373e c357 7dbe ba80 713e 569d 12be
00000100: b499 30bf 719f 79bd 8969 febc 6f78 b8ba
00000110: 6169 553e 2134 9cbd 09c4 7d3e 152b 89be
00000120: 85e0 3fbf 0873 353e b15e 0a3e ec51 00bf
00000130: f59b 6fbd bb5d 7cbc 6e67 0b3e ec80 dfbd
00000140: 5737 82bc 6ecd d83e b8ed c5bd 1ebc b9be
00000150: 7798 41be 6988 15bf e880 e6bd 9a81 a5be
00000160: ea70 2ebe c5c7 a83e c621 3ebe ab41 afbe
00000170: 7fd2 5f3e 61f7 05bd 290f 80be e23d bfbd
00000180: fda7 d73b f93d 16be 4c60 cc3d eb56 debd
00000190: b721 113f a219 e43d bd20 1d3f e084 813e
000001a0: 85e2 afbd eb31 073e 128d 3e3e 9074 573e
000001b0: e6c7 96be 1892 623d f644 783e 97a2 db3d
000001c0: 45a5 1cbe 765d 0f3e 32f1 dbbe db13 373f
000001d0: b465 4b3c 2293 9b3e 548b 2abd 6758 ef3d
000001e0: f457 bc3e 485b 38be 10ac 253d 0d2d e7be
000001f0: 94ba 67be 8784 09bf c74d d83e c00a 083d
00000200: 939e 0e3e 95f2 eabd b56a aa3d 9016 a33e
00000210: c8ea 6c3d 0b79 6b3e ca39 5abe f9b7 463e
00000220: 0013 0dbf 85e6 3cba 6ecc 2f3e 6a80 653e
00000230: 2b1b 863e 3943 1abf c607 2fbe 1407 573e
0.2849076 -0.017657867 0.061889756 0.7759496 0.015911229 -0.13761224 -0.38754416 -0.01481575
0.7159527 0.532139 0.008756603 -0.21047807 -0.4826934 -0.040554173 0.17253074 -0.03823813
-0.3611928 -0.40993294 -0.105270974 0.43192384 0.19745491 -0.2681952 0.57055205 0.068808965
-0.37349075 0.14243159 0.5171004 -0.33463147 0.09565436 0.060526147 0.07140331 0.5375464
-0.2197919 0.5980684 0.12846224 -0.17235847 0.025631307 0.23568748 0.25302252 -0.1062799
-0.014576922 -0.4437213 -0.2774094 -0.053027797 0.09115278 -0.5864909 0.19639082 0.33257282
0.43732756 0.38367945 -0.15553495 -0.041345723 0.034126196 -0.47839054 0.0039698845 -0.120706886
-0.05771489 0.3637966 0.48350686 -0.13668448 0.1793139 -0.2474051 0.23584262 -0.14317831
-0.6898453 -0.06094307 -0.031056182 -0.0014073978 0.2084098 -0.0762713 0.24781813 -0.2679068
-0.74951965 0.17719662 0.13512684 -0.50125 -0.05849834 -0.015403206 0.13613674 -0.10913262
-0.015895529 0.4234423 -0.09664482 -0.36276335 -0.18905817 -0.5841127 -0.11255056 -0.3232544
-0.17035261 0.32964912 -0.18567571 -0.34229788 0.21857642 -0.032706622 -0.25011566 -0.09337975
0.006581305 -0.14672078 0.09979305 -0.10856422 0.5669207 0.111377016 0.6137808 0.25296688
-0.08588127 0.13202636 0.18608502 0.21040559 -0.29449385 0.055315107 0.24245057 0.10724371
-0.1529742 0.14000496 -0.42957455 0.7151467 0.012414385 0.3038569 -0.04163678 0.11686783
0.36785853 -0.18003571 0.040447295 -0.4515156 -0.22629768 -0.53717846 0.4224684 0.033213377
0.13927679 -0.1147205 0.08321134 0.3185315 0.057841092 0.22995393 -0.21311107 0.19406117
-0.55107117 -0.0007205981 0.17167827 0.22412267 0.26192603 -0.60258824 -0.17092809 0.20998794

features.4.banch2.6.weight f4 [12]
00000000: 6e8c a83f 7e87 9b3f 8ad7 9f3f b165 9d3f
00000010: 6205 7b3f f4ea 6c3f ef2b 773f 2390 593f
00000020: 765d 723f 731b 6f3f f118 913f cf3b 543f
1.3167856 1.2150724 1.2487652 1.2296659 0.9805509 0.9254601 0.9655141 0.8498556
0.9467386 0.9340126 1.1335737 0.8290376

features.4.banch2.6.bias f4 [12]
00000000: f92a 283f d073 453e 3d10 173f 262d 603e
00000010: e8e4 a73c a0b4 94be 75fe ae3e a779 19be
00000020: f81f 003e e94d 82be 7b90 8e3b 6793 8a3e
0.6569057 0.1928246 0.5900915 0.21892223 0.020494893 -0.29044056 0.3417851 -0.14987813
0.12512195 -0.25450066 0.0043507195 0.27065584

features.4.banch2.6.running_mean f4 [12]
00000000: 35e5 bf3d a077 6d3c 460a cc3c 721b f53c
00000010: 8ab2 d13c afae 8fbd 8556 8c3d 9b4c 95bc
00000020: 9abb cfbb c2b7 5c3c 4b5e 92bd acde 84bd
0.0936989 0.014493853 0.024907243 0.029920314 0.02559783 -0.0701574 0.0685244 -0.018225005
-0.0063395025 0.013471546 -0.07146891 -0.06487784

features.4.banch2.6.running_var f4 [12]
00000000: d3a1 1740 0000 ed3f 3c75 1c40 dad7 d63f
00000010: d1d2 943f 5308 783f eeb6 0f40 b1ab 973f
00000020: 0ea8 b93f de69 e23f c84d a13f 3362 a73f
2.369252 1.8515625 2.4446554 1.6784623 1.1626836 0.968877 2.2455401 1.1849271
1.4504411 1.7688558 1.2601862 1.3076843
